models/2025-09-18_simple_mlp.pth (torch, 497513 bytes, 3 tensors)

weight f4 [256, 480]
0.018732123 0.04089983 -0.032220375 0.031875804 -0.04669966 0.040421143 -0.017055511 0.0043185134
0.02456056 -0.027626986 0.018407 0.008118695 -0.00050443324 0.019568507 0.03553431 -0.026184581
0.022689184 0.014281578 -0.04075291 0.011987486 -0.048836645 0.013343425 -0.01717005 0.01986703
-0.04760142 -0.020697426 -0.03274952 -0.032702897 -0.02098136 0.0053077918 0.035676584 -0.0459593
0.023468232 0.013532631 -0.035660047 0.030457186 -0.019768687 0.06349803 0.0006539993 -0.020692276
0.0012675218 -0.0081645455 -0.0009028793 0.0296632 -0.0012114798 0.01473993 0.030485414 0.0035541893
0.010319583 -0.027780157 -0.066826835 -0.02353165 -0.06367077 0.06921859 0.018078597 0.005090056
0.0019562289 0.0022784108 0.014352561 -0.036577784 -0.026638666 0.019847095 0.016677756 -0.02730738
-0.00031151075 -0.0061789462 0.014928404 -0.041856408 -0.05762197 0.005143413 0.040440697 0.005902115
0.02773014 -0.040407035 -0.06920935 -0.050111298 -0.060014375 0.026158674 0.015498549 0.027582154
-0.042825043 -0.028928611 -0.0026328396 -0.021384932 -0.0043623755 0.021258088 0.016725875 -0.05060228
-0.038122695 0.013352254 -0.013738104 -0.01944254 -0.0036147085 0.042305052 -0.035293635 -0.037263565
0.027153824 -0.014111486 -0.03934414 -0.039093595 -0.057711266 0.033417616 -0.0062100654 -0.046995237
-0.01490897 -0.036175262 -0.064466715 -0.012001479 -0.07509386 -0.0023641223 0.04444318 -0.0123834945
0.0005223166 -0.0470467 -0.05392786 -0.017979003 -0.027703045 -0.017900178 -0.0065309643 -0.04000836
-0.012930932 -0.019515123 -0.026866645 -0.027346937 -0.06741018 -0.028648384 -0.0060583837 -0.048195917
0.025183175 -0.015267806 0.015947748 0.013681988 -0.07586264 0.05401955 -0.0076954677 -0.030332422
-0.05153785 -0.05149679 -0.010373732 -0.007498454 -0.020106971 -0.028297743 0.02603346 -0.045392204
-0.020920435 0.0066965036 0.0006779517 0.042975828 0.0055504413 -0.019382965 0.020495158 -0.026977165
-0.014355022 -0.04084276 0.021754155 -0.030051695 -0.008876763 0.036315106 0.0190266 -0.031186208
0.035306673 0.004933965 -0.011973631 -0.035564397 -0.014527461 0.030227777 -0.012068139 0.038002662
0.0043060533 -0.029971223 -0.04092113 -0.00492456 -0.009617348 0.031561714 -0.016744953 -0.022684574
-0.04349401 0.011504704 0.01404662 -0.04420182 -0.027930629 0.054741833 0.00094464124 -0.026296243
0.016052064 0.025341325 -0.0039499146 -0.0086776605 -0.049112704 0.0280732 -0.0020681983 -0.021194326
0.020442657 0.03632323 -0.027134456 -0.0117861545 -0.03459175 0.029115375 0.0100833615 0.0050938926
-0.05137666 -0.016917229 0.01417576 0.016144976 -0.036919054 0.006135735 -0.021895645 -0.046163246
-0.024159139 0.0077098883 0.0051753744 0.017470788 -0.07415376 0.0030001705 -0.0073330835 0.040133305
-0.0025975034 -0.01726026 -0.0048901713 -0.020707522 -0.06272729 0.0627318 -0.016318344 -0.019136615
-0.053466335 0.028520647 0.013341142 0.0130385505 -0.06577188 -0.014319891 -0.03216595 0.027129868
0.011774108 0.0415955 0.002502268 0.01443108 -0.03456008 -0.0015053034 -0.031638324 -0.050408594
0.010188634 -0.019806454 -0.027236396 -0.022191355 -0.04014647 -0.006440187 -0.034645196 0.0027585346
-0.021201877 0.030894002 -0.030479345 -0.026287854 -0.039794594 0.009760057 -0.0133671025 -0.054357436
00000000: 1c74 993c 9586 273d 83f9 03bd 3490 023d
00000010: 2548 3fbd a490 253d 00b8 8bbc 5182 8d3b
00000020: 3a33 c93c fd51 e2bc 47ca 963c 4604 053c
00000030: f13b 04ba 224e a03c 6d8c 113d 0c81 d6bc
00000040: abde b93c 48fd 693c 86ec 26bd 2967 443c
00000050: ef08 48bd 619e 5a3c 34a8 8cbc 2fc0 a23c
00000060: b5f9 42bd a68d a9bc 5c24 06bd 79f3 05bd
00000070: 1ae1 abbc fcec ad3b 9c21 123d d23f 3cbd
00000080: 7340 c03c f8b7 5d3c 4510 12bd 5981 f93c
00000090: f1f1 a1bc 410b 823d 2671 2b3a d982 a9bc
000000a0: f922 a63a 96c4 05bc 34af 6cba 3d00 f33c
000000b0: 84ca 9eba bf7f 713c 8cbc f93c 67ed 683b
000000c0: 7813 293c 3693 e3bc 82dc 88bd 72c5 c0bc
000000d0: d265 82bd 7ac2 8d3d 9119 943c 7cca a63b
000000e0: 1334 003b 6451 153b 0127 6b3c 96d2 15bd
000000f0: 5539 dabc 6096 a23c ca9f 883c bab3 dfbc
00000100: 4452 a3b9 c278 cabb 4496 743c a071 2bbd
00000110: 0405 6cbd 138a a83b 25a5 253d 8766 c13b
00000120: 522a e33c d981 25bd a2bd 8dbd 8141 4dbd
00000130: a2d1 75bd b74a d63c a0ed 7d3c f8f3 e13c
00000140: 5069 2fbd b2fb ecbc b88b 2cbb 742f afbc
00000150: 42f2 8ebb 7125 ae3c b404 893c 5644 4fbd
00000160: 8b26 1cbd 6ac3 5a3c c915 61bc f645 9fbc
00000170: bfe4 6cbb 1048 2d3d 0f90 10bd aea1 18bd
00000180: b271 de3c dd33 67bc 5227 21bd 9b20 20bd
00000190: a662 6cbd e9e0 083d ce7d cbbb 147e 40bd
000001a0: c144 74bc 832c 14bd 2007 84bd daa1 44bc
000001b0: cfca 99bd 64ef 1abb 0d0a 363d 24e4 4abc
000001c0: 13ec 083a 0ab4 40bd 76e3 5cbd b448 93bc
000001d0: 7ff1 e2bc 65a3 92bc b301 d6bb cedf 23bd
000001e0: 43dc 53bc 2ede 9fbc 7017 dcbc af06 e0bc
000001f0: 590e 8abd 04b0 eabc 6885 c6bb 1569 45bd
00000200: f24c ce3c d225 7abc daa4 823c 6b2a 603c
00000210: df5d 9bbd 9b43 5d3d 432a fcbb b37b f8bc
00000220: 5a19 53bd 4cee 52bd 96f6 29bc 97b5 f5bb
00000230: 60b7 a4bc abd0 e7bc 1f44 d53c 2ded 39bd
00000240: 5561 abbc 586e db3b 92b8 313a 6c07 303d
00000250: 7ae0 b53b 06c9 9ebc 76e5 a73c 37ff dcbc
00000260: 5431 6bbc bd4a 27bd c535 b23c f92e f6bc
00000270: d86f 11bc 26bf 143d acdd 9b3c 387a ffbc
00000280: bb9d 103d 19ad a13b 0c2d 44bc f9ab 11bd
00000290: 9604 6ebc 3ea0 f73c 72b9 45bc aea8 1b3d
000002a0: cb19 8d3b 3686 f5bc ea9c 27bd 345e a1bb
000002b0: 1592 1dbc db46 013d b62c 89bc 00d5 b9bc
000002c0: c626 32bd 3a7e 3c3c cb23 663c f80c 35bd
000002d0: c6ce e4bc f938 603d cda1 773a 386b d7bc
000002e0: 9e7f 833c 9c98 cf3c 496e 81bb bf2c 0ebc
000002f0: 672a 49bd c4f9 e53c 9c8a 07bb b99f adbc
00000300: 5c77 a73c abc7 143d 1449 debc b71a 41bc
00000310: 14b0 0dbd 5e83 ee3c af34 253c abea a63b
00000320: 5570 52bd 0096 8abc 7241 683c 7842 843c
00000330: 6f38 17bd 470e c93b 7f5e b3bc ac15 3dbd
00000340: 63e9 c5bc 3ba3 fc3b 3096 a93b e61e 8f3c
00000350: eddd 97bd 829e 443b 5d4a f0bb d262 243d
00000360: e03a 2abb 6465 8dbc bb3d a0bb d2a2 a9bc
00000370: 2a77 80bd 8879 803d 0cae 85bc 64c4 9cbc
00000380: 84ff 5abd 22a4 e93c ce94 5a3c a59f 553c
00000390: 68b3 86bd fa9d 6abc 71c0 03bd 753f de3c
000003a0: 30e8 403c 0b60 2a3d 17fd 233b 5670 6c3c
000003b0: df8e 0dbd 9a4d c5ba 3097 01bd 3e79 4ebd
000003c0: 3aee 263c 2541 a2bc dd1e dfbc a5ca b5bc
000003d0: a070 24bd 3408 d3bb 1fe8 0dbd 88c8 343b
000003e0: 8faf adbc 6b15 fd3c d2af f9bc a059 d7bc
000003f0: a8ff 22bd a5e8 1f3c b101 5bbc e7a5 5ebd

bias f4 [256]
0.008889951 0.0073805195 0.036934767 -0.044062994 -0.04353784 0.0052012755 -0.05343518 0.0033938738
-0.0009136832 0.028518803 0.03597212 -0.041817423 -0.013364409 0.03693659 -0.011101686 0.015106422
-0.005478924 0.0066390643 0.005453561 0.009350855 -0.03139297 -0.030452402 -0.0413265 0.0018122644
-0.049701113 0.0054748966 -0.0016066309 -0.031806473 -0.023122583 -0.005541725 -0.04187302 0.02731021
-0.03977555 -0.045132942 0.017284459 0.007932614 -0.05299584 0.011365116 0.016917767 -0.051589176
0.011049966 0.0059328517 -0.039795727 -0.017409343 -0.03237552 0.021304611 -0.020515697 -0.009871217
-0.03472307 -0.017191198 0.033863887 -0.008224889 0.00918447 -0.0008242375 -0.04430224 0.059271567
0.03435666 -0.020865208 0.017653532 -0.011442818 0.013064887 -0.006801472 0.014740102 -0.031322494
-0.026542662 -0.021982968 0.0010801456 0.015138454 0.046507686 -0.01871665 -0.05529279 -0.04452713
0.02898034 0.028779663 -0.044724125 0.0015503499 -0.011541007 -0.039357457 0.0200155 0.044243332
-0.04299731 0.024233762 0.018653488 -0.043677762 0.013980876 -0.005418887 -0.0064337924 -0.034901924
-0.0042059487 0.013988808 0.036283504 0.016425857 -0.042723667 0.031005366 -0.019253686 -0.033371724
-0.040715303 -0.006554303 0.00041130756 -0.00986573 -0.041408513 -0.018424783 0.03298633 0.013255525
0.044581607 -0.054951265 -0.01922588 0.00028719762 -0.02786808 0.039434474 0.031287663 0.0010334436
0.01810023 -0.052913114 -0.010808117 0.040464606 0.014108916 0.024881309 0.0057613254 -0.0012572219
0.004991436 0.026952473 -0.024779273 -0.012086197 0.030211514 -0.030324884 -0.014148422 0.014819367
-0.0331707 0.0330854 -0.038619153 -0.03320175 0.02968755 -0.027761243 -0.029943557 -0.034227956
0.03137055 -0.011991295 -0.016307468 0.03703381 -0.028979 -0.025477348 0.04163924 0.010235753
0.0005809671 0.0387801 -0.022431074 0.041355588 0.013958215 -0.015836554 0.0047139176 -0.02716965
0.017239472 -0.021666236 0.015671706 -0.044542875 0.02238323 -0.045097258 -0.009488912 0.008220258
0.030630851 0.032141764 -0.009567436 0.03991007 -0.005886663 0.017475482 -0.039107084 0.022057347
-0.0081903655 -0.0062580537 0.013597367 -0.026062403 0.03553197 -0.01674466 -0.034950238 0.011388734
-0.022204686 0.01792781 -0.020814551 -0.007838092 -0.03708788 0.027656995 -0.031721618 -0.019309858
0.03453381 -0.0348324 -0.070887566 -0.011487422 0.008505352 0.028862018 0.034383155 0.0124322595
0.029849002 -0.041828647 -0.004013879 -0.021838455 0.007509921 -0.024676668 -0.012968801 0.0047755674
-0.03591265 0.01811648 -0.02122767 -0.017733773 0.027688809 0.019950474 -0.030150473 0.0035293067
0.00029166802 -0.0019102321 0.013254603 0.01466393 -0.01637072 -0.041167356 -0.057468053 -0.008413576
-0.0043589654 -0.028679045 -0.019348592 -0.039210685 0.037495077 0.0033419437 0.00039425626 0.03376439
-0.030433025 -0.012518841 0.024152745 0.0075719757 0.015726767 0.008905754 -0.014139091 -0.025047135
-0.0019146844 -0.03597805 0.03226993 0.018148746 0.036687978 -0.057495955 -0.0040498534 -0.031482954
-0.041019097 -0.029139156 0.045678604 -0.035652537 -0.052108686 0.030362714 0.027492892 -0.034373015
0.035787404 0.0024017608 0.004859061 -0.026869878 -0.04844889 0.03342083 0.028297266 0.032086972
00000000: 28a7 113c 49d8 f13b e948 173d 667b 34bd
00000010: bc54 32bd 766f aa3b d9de 5abd c16b 5e3b
00000020: 3e84 6fba 44a0 e93c 8057 133d bf48 2bbd
00000030: 65f6 5abc d24a 173d d9e3 35bc ed80 773c
00000040: 8c88 b3bb 828c d93b c9b3 b23b 5434 193c
00000050: ea95 00bd 5177 f9bc fa45 29bd 8189 ed3a
00000060: 6593 4bbd c366 b33b 9695 d2ba 8147 02bd
00000070: 926b bdbc 5c97 b5bb 0b83 2bbd a9b9 df3c
00000080: b0eb 22bd 52dd 38bd 2398 8d3c cbf7 013c
00000090: 2a12 59bd c034 3a3c 2197 8a3c 2c4f 53bd
000000a0: eb0a 353c 5e68 c23b d800 23bd 0a9e 8ebc
000000b0: 319c 04bd 0287 ae3c 8910 a8bc e3ba 21bc
000000c0: c739 0ebd 8ed4 8cbc dcb4 0a3d afc1 06bc
000000d0: 767a 163c a411 58ba 4476 35bd bec6 723d
000000e0: 92b9 0c3d 83ed aabc 249e 903c a87a 3bbc
000000f0: 1c0e 563c e2de debb 7880 713c 044c 00bd
00000100: ff6f d9bc a015 b4bc ac93 8d3a 4707 783c
00000110: d87e 3e3d a953 99bc b17a 62bd 1462 36bd
00000120: 2e68 ed3c 54c3 eb3c a530 37bd 1c35 cb3a
00000130: 7e16 3dbc 4935 21bd 8cf7 a33c 7f38 353d
00000140: f31d 30bd e285 c63c 33cf 983c 74e7 32bd
00000150: 0b10 653c eb90 b1bb 90d2 d2bb 52f5 0ebd
00000160: 0ed2 89bb 5031 653c 039e 143d 858f 863c
00000170: 03ff 2ebd f7fe fd3c e8b9 9dbc cab0 08bd
00000180: 17c5 26bd 7bc5 d6bb c4a4 d739 dfa3 21bc
00000190: f99b 29bd 92ef 96bc ad1c 073d b42d 593c
000001a0: 349b 363d 9414 61bd 987f 9dbc 0393 9639
000001b0: 9a4b e4bc 0b86 213d 7e27 003d 9d74 873a
000001c0: ef46 943c 6cbb 58bd 8714 31bc 37be 253d
000001d0: 1529 673c e3d3 cb3c 80c9 bc3b 5ec9 a4ba
000001e0: 338f a33b 6fcb dc3c e7fd cabc 2f05 46bc
000001f0: 237e f73c e46b f8bc c8ce 67bc eecc 723c
00000200: 00de 07bd 8e84 073d 1e2f 1ebd 8ffe 07bd
00000210: 4e33 f33c 8c6b e3bc 314c f5bc 9d32 0cbd
00000220: 687e 003d 2377 44bc 3d97 85bc c4b0 173d
00000230: 5e65 edbc dfb5 d0bc e88d 2a3d dcb3 273c
00000240: 0b4c 183a e2d7 1e3d 5fc1 b7bc 7a64 293d
00000250: ffb0 643c a9bb 81bc 3577 9a3b e392 debc
00000260: cb39 8d3c 647d b1bc f361 803c 9772 36bd
00000270: 095d b73c e7b7 38bd 6277 1bbc 43ae 063c
00000280: 8ded fa3c 15a7 033d bcc0 1cbc be78 233d
00000290: e9e4 c0bb be28 8f3c c02e 20bd 9cb1 b43c
000002a0: e230 06bc 5c10 cdbb 7ec7 5e3c d280 d5bc
000002b0: f989 113d 192c 89bc fb27 0fbd d097 3a3c
000002c0: 9ae6 b5bc 58dd 923c 4783 aabc 576b 00bc
000002d0: 76e9 17bd ec90 e23c 87ee 01bd b52f 9ebc
000002e0: 5373 0d3d 6bac 0ebd 802d 91bd bd35 3cbc
000002f0: 085a 0b3c 0a70 ec3c 5ad5 0c3d adb0 4b3c
00000300: e585 f43c 8454 2bbd dc86 83bb 8fe6 b2bc
00000310: c915 f63b b926 cabc 187b 54bc 5d7c 9c3b
00000320: 2519 13bd 0369 943c a7e5 adbc 6b46 91bc
00000330: a4d3 e23c 2d6f a33c 20fe f6bc f14b 673b
00000340: 05eb 9839 c160 faba d629 593c fb40 703c
00000350: e31b 86bc 1a9f 28bd 9f63 6bbd 18d9 09bc
00000360: a7d5 8ebb 51f0 eabc f080 9ebc 629b 20bd
00000370: 7094 193d 8304 5b3b 2eb4 ce39 874c 0a3d
00000380: ae4e f9bc d31b 4dbc fadb c53c 561e f83b
00000390: 6cd5 803c 71e9 113c a5a7 67bc a62f cdbc
000003a0: 26f6 faba b85d 13bd 792d 043d aeac 943c
000003b0: 2246 163d e180 6bbd a2b4 84bb 45f4 00bd
000003c0: a403 28bd 3db5 eebc 7d19 3b3d 6508 12bd
000003d0: eb6f 55bd 3abb f83c c638 e13c b8ca 0cbd
000003e0: d095 123d dc66 1d3b c238 9f3b 381e dcbc
000003f0: 5872 46bd 48e4 083d abcf e73c a16d 033d

weight f4 [1, 256]
-0.10018559 -0.05452983 0.03544234 -0.06036219 -0.03336788 -0.027050788 -0.08271501 0.04988296
0.05198601 -0.08353855 0.048961762 0.011795859 -0.05411161 0.0061789686 -0.053227287 -0.0023365906
-0.059851527 0.010240808 -0.018764105 0.0135569405 0.021460976 -0.01814471 -0.1038448 -0.06084908
-0.1034894 -0.009022789 0.0120239 -0.030828048 -0.050336994 -0.06414326 -0.058727387 0.011744697
-0.05710615 -0.023766715 0.034901723 0.08861725 -0.046945415 -0.03067153 -0.04653982 -0.09034265
-0.042789076 -0.015236074 -0.08088176 0.046310827 -0.10083059 0.0112767415 -0.026050305 -0.0023649675
-0.07178224 0.05214166 0.016479105 -0.057164025 0.0336706 0.027910298 -0.091289975 -0.065025054
0.018068936 -0.0072092717 -0.028645655 0.01673687 -0.087696455 0.01668159 -0.05154875 -0.0026728518
-0.029861707 -0.06996955 0.009539995 -0.041256845 0.032780673 -0.012187911 -0.06849148 0.040033747
-0.069954425 -0.07157526 -0.00176854 -0.05422626 0.075518355 -0.009965255 -0.06031488 -0.02167313
-0.002658645 -0.061147846 -0.07891993 -0.053813327 -0.02370284 0.03275213 -0.045529094 -0.08102494
-0.09120453 0.026878746 -0.06341036 -0.10273472 -0.07666513 0.03601431 -0.07425252 -0.08069599
-0.027492793 -0.047485355 -0.040643517 -0.06888773 -0.016229002 -0.053988483 0.023185337 0.0116014555
0.044240844 -0.09699805 0.006915048 0.0077528674 -0.014853192 -0.025867395 -0.02160359 -0.0026481927
-0.016152555 -0.10883564 -0.074805856 0.022747826 -0.016745402 -0.03383167 -0.032266762 -0.0043224725
-0.010911147 -0.053482827 -0.014838793 -0.033593237 -0.009781935 0.0009934125 0.01963054 -0.015658405
-0.10327088 -0.029886551 0.016981158 -0.055437528 0.008403863 0.045530725 -0.07904339 -0.046972685
0.019902255 -0.04633978 0.039550684 0.018838815 0.03382389 0.006236885 -0.02259815 0.012422936
-0.029830692 -0.056085784 -0.0790055 0.012803773 -0.09219429 -0.0693837 -0.0066600093 0.010304253
0.025229244 -0.022492956 -0.0019389684 -0.082629316 -0.004319023 0.066644944 0.014219077 -0.059333127
-0.049018588 0.017249864 -0.029093772 0.02464282 -0.045736372 -0.013963945 -0.07142731 -0.020036614
-0.06353088 -0.07072398 0.038487587 -0.004688778 -0.03617721 -0.013565085 0.028602872 0.010008361
-0.07635343 -0.00071997114 -0.084758535 0.023090612 0.042536058 0.019589748 -0.009173201 -0.04838934
-0.0017115321 -0.10313718 -0.050894637 -0.0073680077 0.054620013 0.011623891 0.010849117 -0.014094129
-0.043890473 0.03743465 0.05588585 -0.030094799 0.036055576 0.031824153 -0.06359746 -0.02099608
-0.056067303 0.014085278 -0.04210491 -0.069910884 -0.028611964 -0.056123637 0.05152727 -0.010837326
0.0096397195 0.02136247 -0.020198792 -0.064570904 -0.059486035 0.026907224 -0.07688358 -0.039386936
-0.08610284 0.011276079 -0.030942045 -0.012459147 0.056140497 -0.03291489 0.023075316 -0.10476966
-0.053054426 -0.06907669 0.029381378 0.012254816 0.036673956 0.006249339 -0.002609495 -0.027923644
-0.08103263 -0.077023506 -0.043211512 -0.020930469 0.011029331 -0.05055325 -0.062019613 -0.0037041802
-0.048196234 -0.048835695 0.04126604 -0.05917555 -0.09360466 -0.099350154 0.0013022166 -0.084815584
0.023499325 -0.05748265 0.011261032 0.05016894 -0.032635767 -0.1004321 0.010024054 0.03936385
00000000: 1a2e cdbd ac5a 5fbd fd2b 113d 583e 77bd
00000010: c2ac 08bd 9d99 ddbc 7d66 a9bd 1352 4c3d
00000020: 48ef 543d 4216 abbd 218c 483d 6b43 413c
00000030: 23a4 5dbd f278 ca3b db04 5abd 7c21 19bb
00000040: e026 75bd 10c9 273c 2eb7 99bc ee1d 5e3c
00000050: eece af3c 37a4 94bc 95ac d4bd e33c 79bd
00000060: 40f2 d3bd 52d4 13bc e4ff 443c 1a8b fcbc
00000070: 2a2e 4ebd 8b5d 83bd 218c 70bd d46c 403c
00000080: 23e8 69bd 6ab2 c2bc 1cf5 0e3d f67c b53d
00000090: d649 40bd dc42 fbbc 8aa0 3ebd 9105 b9bd
000000a0: 9943 2fbd baa0 79bc 56a5 a5bd 6cb0 3d3d
000000b0: 4580 cebd 15c2 383c 7367 d5bc 92fd 1abb
000000c0: 9102 93bd 7e92 553d 30ff 863c d324 6abd
000000d0: 2fea 093d 23a4 e43c 3df6 babd db2b 85bd
000000e0: 4e05 943c c13b ecbb 4baa eabc c31b 893c
000000f0: 339a b3bd d4a7 883c c824 53bd 032b 2fbb
00000100: 8aa0 f4bc 324c 8fbd a44d 1c3c f0fc 28bd
00000110: 0745 063d ceaf 47bc 4345 8cbd 6dfa 233d
00000120: 4444 8fbd 0d96 92bd 5bce e7ba 5b1c 5ebd
00000130: 5ea9 9a3d 4f45 23bc bc0c 77bd d98b b1bc
00000140: a93c 2ebb 2a76 7abd c6a0 a1bd 5d6b 5cbd
00000150: 752c c2bc 1927 063d b77c 3abd 67f0 a5bd
00000160: 71c9 babd d130 dc3c 4add 81bd 9566 d2bd
00000170: 9c02 9dbd be83 133d b511 98bd f043 a5bd
00000180: 9138 e1bc 0180 42bd d179 26bd 0315 8dbd
00000190: aff2 84bc 0723 5dbd 2def bd3c 0814 3e3c
000001a0: e335 353d eaa6 c6bd a197 e23b c40b fe3b
000001b0: cd5a 73bc dce7 d3bc 03fa b0bc 4d8d 2dbb
000001c0: 5d52 84bc 38e5 debd d033 99bd a659 ba3c
000001d0: a72d 89bc 1493 0abd 272a 04bd 87a3 8dbb
000001e0: abc4 32bc cf10 5bbd 691e 73bc 1099 09bd
000001f0: 6944 20bc 6435 823a 3ad0 a03c 0e46 80bc
00000200: af7f d3bd a4d4 f4bc 121c 8b3c 7612 63bd
00000210: 5bb0 093c 6d7e 3a3d 80e1 a1bd 6e66 40bd
00000220: 0e0a a33c c8ce 3dbd e6ff 213d dc53 9a3c
00000230: eb8a 0a3d c95e cc3b c11f b9bc 9289 4b3c
00000240: 7f5f f4bc 35ba 65bd a3cd a1bd ebc6 513c
00000250: 5cd0 bcbd 0b19 8ebd 353c dabb 2bd3 283c
00000260: 8fad ce3c 2643 b8bc fc24 feba 8f39 a9bd
00000270: 9786 8dbb 257d 883d 22f7 683c 4b07 73bd
00000280: b7c7 48bd 964f 8d3c 1056 eebc bddf c93c
00000290: 1056 3bbd 08c9 64bc 7b48 92bd d323 a4bc
000002a0: 7a1c 82bd bcd7 90bd 29a5 1d3d 52a4 99bb
000002b0: 8e2e 14bd 1740 5ebc 9250 ea3c 1cfa 233c
000002c0: 305f 9cbd 72bc 3cba e295 adbd 8628 bd3c
000002d0: 4a3a 2e3d ae7a a03c 324b 16bc e733 46bd
000002e0: 7d55 e0ba 9639 d3bd e576 50bd 546f f1bb
000002f0: 3cb9 5f3d 2272 3e3c 7fc0 313c 10eb 66bc
00000300: 7fc6 33bd 1355 193d 90e8 643d 5e89 f6bc
00000310: 03af 133d 0b5a 023d 633f 82bd f9ff abbc
00000320: d4a6 65bd f0c5 663c 3376 2cbd 702d 8fbd
00000330: a363 eabc e6e1 65bd 420e 533d 0a8f 31bc
00000340: eaef 1d3c 5900 af3c f077 a5bc c03d 84bd
00000350: a1a7 73bd 8a6c dc3c 2375 9dbd 3254 21bd
00000360: b056 b0bd 4ebf 383c 2c7a fdbc 7321 4cbc
00000370: 94f3 653d c4d1 06bd 7208 bd3c 7a91 d6bd
00000380: 994f 59bd 1478 8dbd 37b1 f03c 6cc8 483c
00000390: 6e37 163d 41c7 cc3b 1004 2bbb 20c0 e4bc
000003a0: 6ff4 a5bd 80be 9dbd 8efe 30bd 6076 abbc
000003b0: 5eb4 343c ed10 4fbd 4708 7ebd d5c1 72bb
000003c0: 6a69 45bd f007 48bd 9406 293d 1062 72bd
000003d0: cdb3 bfbd 1878 cbbd 23af aa3a cbb3 adbd
000003e0: a881 c03c ed72 6bbd 3180 383c f27d 4d3d
000003f0: 15ad 05bd 58af cdbd ee3b 243c fd3b 213d
