models/2025-09-18_cnn.pth (torch, 819945 bytes, 5 tensors)

weight f4 [256, 8, 3]
0.12809551 0.1411086 -0.07562018 0.1765464 -0.057946134 0.027842179 -0.11158659 0.1059578
0.16501847 -0.16136546 0.16506507 0.02574214 0.12575354 0.0045843343 0.078213885 -0.020690564
0.16548723 0.04322526 -0.10808655 0.037978735 -0.10652909 -0.042298473 -0.10165945 0.11712356
-0.17778449 -0.10703174 -0.07151552 -0.12963621 0.010584587 -0.21462183 0.19275042 -0.16325498
0.16605619 0.025004711 -0.078902274 0.10742501 0.023828188 0.16487792 0.022409534 -0.042344194
0.05257452 -0.057849627 0.09078783 0.18571632 0.12736325 -0.09623782 0.11504647 0.033218693
0.08987009 -0.13386096 -0.20735142 -0.08415647 -0.16686413 0.1627348 0.07484819 0.102322035
0.084579 0.005204513 0.15177266 -0.15338391 -0.0039894567 -0.14659634 0.062258217 -0.011738663
0.10141278 0.024896888 0.16513436 -0.10120008 -0.10042737 -0.11599014 0.19068758 0.08150305
0.18589139 -0.17753568 -0.21254554 -0.16498429 -0.1437552 0.07787174 0.074360035 0.17153762
-0.10403777 -0.14982587 0.09315659 -0.09576128 0.11933916 -0.05021769 0.11356374 -0.1451768
-0.10370309 0.058472972 0.0442578 -0.04571535 0.12382515 0.13690026 -0.1476007 -0.109802365
0.22716817 -0.032589864 -0.03880201 -0.17374219 -0.09226459 0.07266098 -0.0015661364 -0.12500596
0.024746899 -0.11344715 -0.14441064 -0.08688719 -0.1447257 -0.10309123 0.22936027 0.04848897
0.08201469 -0.17716281 -0.11067071 -0.044042856 0.04943541 -0.15086842 -0.06351565 -0.099407196
-0.009011557 -0.026774643 0.042454906 -0.14414276 -0.07300295 -0.06499506 -0.0969715 -0.12842545
0.20854402 -0.014272868 0.3010602 0.15409482 -0.17274174 0.19423541 0.0027597775 -0.12684636
-0.07715903 -0.13632065 -0.011209808 -0.019991675 0.12576692 -0.19368911 0.19539982 -0.08934771
-0.06205492 0.017161466 0.08173012 0.14900996 0.16949311 -0.17670147 0.034917857 -0.103767626
-0.036987346 -0.17233522 0.16555195 -0.16860664 0.08809055 0.053622466 0.050624903 -0.12077438
0.16975707 0.030862242 0.009752369 -0.1965726 0.072864674 -0.051650994 -0.11256047 0.158149
0.019210927 -0.13458468 -0.13455994 0.03131496 0.1512611 -0.02424164 -0.09427306 -0.043783706
-0.13500232 0.062140863 0.14401998 -0.2115276 0.0632973 0.13001084 0.057376962 -0.04153251
0.11534643 0.0952169 0.08327432 -0.019728279 -0.03967162 0.040754963 -0.008587986 -0.03809434
0.14571862 0.18503019 -0.013683247 -0.039243955 0.015636899 0.0018277484 0.03302353 0.037932307
-0.20936434 -0.06632802 0.1861974 0.09562208 -0.03165791 -0.155704 -0.15897307 -0.15325314
-0.0055934703 0.1024317 0.108829916 0.080865346 -0.20537779 -0.105280936 -0.021246284 0.20403905
0.07557229 -0.010746316 0.114793144 -0.053783737 -0.10829873 0.16443251 -0.06720441 -0.017916158
-0.19117576 0.18120809 0.19966978 0.11214324 -0.12555657 -0.19538727 -0.17726329 0.18847269
0.15404327 0.23527324 0.12198563 0.06893874 0.0060909106 -0.12163062 -0.14751677 -0.17518356
0.12582205 -0.060803328 -0.0024268145 -0.08228065 -0.002259288 -0.11333903 -0.10000126 0.09966624
-0.03002543 0.16325262 -0.026803741 -0.11373751 -4.3205633e-05 -0.06895717 -0.029375866 -0.16849557
00000000: 782b 033e c67e 103e c1de 9abd 94c8 343e
00000010: ed58 6dbd 4815 e43c 8387 e4bd 6700 d93d
00000020: 9afa 283e fd3c 25be d106 293e 2ee1 d23c
00000030: 89c5 003e 2f38 963b 9a2e a03d 427f a9bc
00000040: 7c75 293e f80c 313d 7b5c ddbd 978f 1b3d
00000050: ec2b dabd 2a41 2dbd d432 d0bd 7ade ef3d
00000060: 230d 36be 7533 dbbd bb76 92bd 5bbf 04be
00000070: fa6a 2d3c d3c5 5bbe 5e60 453e 502c 27be
00000080: a20a 2a3e aed6 cc3c 8497 a1bd a501 dc3d
00000090: 5533 c33c c2d5 283e 3394 b73c 1b71 2dbd
000000a0: 6158 573d bbf3 6cbd f8ee b93d 6b2c 3e3e
000000b0: 836b 023e 5618 c5bd 7c9d eb3d 5310 083d
000000c0: cf0d b83d d912 09be ee53 54be 3a5a acbd
000000d0: 6ede 2abe f4a3 263e 024a 993d 378e d13d
000000e0: c137 ad3d 9f8a aa3b 4b6a 1b3e ac10 1dbe
000000f0: fdb9 82bb 5a1d 16be 7902 7f3d 8553 40bc
00000100: 81b1 cf3d 8ff4 cb3c fb18 293e fd41 cfbd
00000110: ddac cdbd 3d8c edbd 9b43 433e 12eb a63d
00000120: 505a 3e3e eacb 35be 8aa5 59be a4f1 28be
00000130: 9034 13be 387b 9f3d 134a 983d 8fa7 2f3e
00000140: c111 d5bd f46b 19be e2c8 be3d 7d1e c4bd
00000150: 1768 f43d 11b1 4dbd 1b94 e83d 3aa9 14be
00000160: 4962 d4bd 5b81 6f3d ab47 353d 0540 3bbd
00000170: 0a98 fd3d 952f 0c3e a324 17be 10e0 e0bd
00000180: c69e 683e f37c 05bd dbee 1ebd 79e9 31be
00000190: 38f5 bcbd 48cf 943d d146 cdba 9001 00be
000001a0: 02ba ca3c fb56 e8bd 62e0 13be e9f1 b1bd
000001b0: f932 14be 7f21 d3bd 6bdd 6a3e 5f9c 463d
000001c0: 51f7 a73d 2b6a 35be 53a7 e2bd 4866 34bd
000001d0: c97c 4a3d 407d 1abe 7e14 82bd 0096 cbbd
000001e0: 36a5 13bc 7f56 dbbc 32e5 2d3d 299a 13be
000001f0: 9282 95bd 211c 85bd fe98 c6bd f681 03be
00000200: 908c 553e bfd8 69bc 9024 9a3e 08cb 1d3e
00000210: 36e3 30be a6e5 463e 62dd 343b 03e4 01be
00000220: 8e05 9ebd a497 0bbe 58a9 37bc 95c5 a3bc
00000230: 0bc9 003e 7056 46be e416 483e effb b6bd
00000240: 4d2d 7ebd 3496 8c3c 1f62 a73d 1196 183e
00000250: 9a8f 2d3e 3bf1 34be 0706 0f3d 1f84 d4bd
00000260: 0b80 17bd a578 30be 7386 293e 38a7 2cbe
00000270: d168 b43d 3ba3 5b3d 0f5c 4f3d 8f58 f7bd
00000280: ccd4 2d3e d0d2 fc3c 66c8 1f3c 544a 49be
00000290: 133a 953d fe8f 53bd 1b86 e6bd d0f1 213e
000002a0: 3c60 9d3c 91d0 09be 15ca 09be 1e44 003d
000002b0: 31e4 1a3e 6796 c6bc 3c12 c1bd 8b56 33bd
000002c0: 0c3e 0abe 6b87 7e3d f979 133e b19a 58be
000002d0: 04a2 813d 9021 053e 1b04 6b3d fe1d 2abd
000002e0: c03a ec3d 1401 c33d ba8b aa3d 339d a1bc
000002f0: b57e 22bd adee 263d a0b4 0cbc d008 1cbd
00000300: 4337 153e 8e78 3d3e b32f 60bc 45be 20bd
00000310: f418 803c 0f91 ef3a ae43 073d e85e 1b3d
00000320: 9b63 56be fcd6 87bd 88aa 3e3e 82d5 c33d
00000330: baab 01bd df70 1fbe d6c9 22be 64ee 1cbe
00000340: 6e49 b7bb b6c7 d13d 38e2 de3d bb9c a53d
00000350: 8e4e 52be 889d d7bd b00c aebc 9def 503e
00000360: a5c5 9a3d 5111 30bc ab18 eb3d 564c 5cbd
00000370: b9cb ddbd ff60 283e 77a2 89bd e8c4 92bc
00000380: 94c3 43be 9d8e 393e 3c76 4c3e 5bab e53d
00000390: e791 00be 9a13 48be 8284 35be fcfe 403e
000003a0: 85bd 1d3e 78eb 703e 9ad3 f93d c12f 8d3d
000003b0: 4396 c73b 7919 f9bd a30e 17be 5263 33be
000003c0: 7fd7 003e e90c 79bd 310b 1fbb c282 a8bd
000003d0: 9010 14bb 4b1e e8bd 76cd ccbd d01d cc3d
000003e0: e4f7 f5bc b22b 273e 8593 dbbc 36ef e8bd
000003f0: b237 35b8 6b39 8dbd a8a5 f0bc 1a8a 2cbe

bias f4 [256]
-0.17879571 0.026919667 -0.050464045 0.14889218 -0.17565376 0.06990406 0.0705644 0.053881202
-0.032639146 0.21503441 -0.124420546 0.18105058 0.08607525 0.0985459 0.14742084 0.030967437
0.03765118 -0.036363408 -0.17216012 0.079370365 0.12837437 0.08389656 -0.041907195 -0.1580385
0.0004921698 0.06644649 -0.14196791 0.15922835 -0.025015226 0.063142 0.16447619 0.102243684
-0.110498264 0.07681828 0.10771414 0.100560285 -0.114595965 0.018657995 -0.14634871 -0.0010705943
-0.15794173 0.1506347 0.22110747 -0.18154423 -0.11191527 -0.09563417 -0.12997703 0.1697336
-0.1688084 -0.0912251 -0.13389447 -0.010952016 -0.12941645 -0.14804883 0.1963328 0.08939482
0.10895233 0.13197032 0.0540783 0.024259048 -0.14269294 0.033856858 -0.15324157 -0.026537968
-0.114802934 -0.104174696 -0.109642066 -0.09758042 -0.099761486 -0.106821 -0.050198305 -0.19726588
0.13979416 0.046580255 -0.1800397 -0.20341001 -0.109019496 0.06330238 0.17716639 -0.007930158
0.107908815 -0.07125272 -0.047374588 -0.014421466 -0.19593883 0.0060066823 0.04268453 0.11216455
-0.17111416 -0.08394716 0.0129639385 0.021297265 0.034508877 -0.119180344 0.15998825 -0.14673421
-0.07686771 0.092488125 -0.058939606 -0.08928964 -0.17532718 0.12143298 -0.019358054 0.11328003
0.026005717 -0.17372005 -0.08902809 0.12721877 -0.11341973 -0.067852914 0.13186093 -0.058425575
0.03683208 -0.116727956 0.048546806 0.039149128 -0.15539251 -0.13392487 0.06629025 -0.050847918
0.12436213 -0.00222029 -0.08119208 -0.02265588 -0.077522606 0.08738064 0.15149795 -0.024880018
-0.12763955 0.13507493 0.1463688 0.12467504 -0.0056832354 0.032736536 0.008723383 -0.06799386
-0.19575013 -0.012384951 0.100662254 0.104880944 0.032577325 0.08275951 0.14595252 -0.054187395
0.12402887 -0.009227889 -0.055582974 -0.074384086 -0.089923665 -0.1429834 0.03150568 0.16561347
0.019688977 0.028718961 -0.062291477 -0.052866083 -0.053862277 0.050109353 0.040182143 -0.08361731
0.029094258 -0.033377115 0.0032325806 0.121423125 -0.09817819 0.15842499 -0.10050417 0.16813944
0.061389238 0.06415056 -0.03637904 -0.035217285 -0.13060476 -0.18332142 0.11176921 0.1919282
0.06602589 -0.09177802 0.038340088 0.004127922 -0.19366229 -0.1556579 0.08086378 -0.07595214
-0.023145748 -0.10841803 0.08611881 -0.08094388 -0.04817789 0.0994178 0.1662205 0.16336955
0.06456363 -0.010000692 0.13291658 0.17231163 0.06254875 0.049101938 0.056751445 0.004108942
0.10950725 0.042294797 -0.19285922 -0.10021163 -0.16689438 -0.069643475 -0.008793086 -0.068638474
-0.19885407 -0.13088664 0.06004062 -0.0073846453 -0.043773018 0.024220109 -0.072723106 -0.109650776
-0.08763993 -0.06919376 -0.21410017 -0.16156682 -0.08899579 0.06701381 0.19487436 -0.010881521
0.12564664 0.05124508 -0.14173763 -0.089638054 -0.042094123 -0.18608417 0.011394596 0.03306669
-0.16853869 -0.05188495 -0.18518738 0.21211725 0.10011482 -0.076289654 0.15653697 -0.12747197
0.17442779 -0.05103283 0.032650355 0.15237167 0.08575748 0.033425935 -0.019780282 0.05177255
0.17714682 -0.031365022 -0.033231393 0.05744895 -0.12007894 -0.055718902 0.008522921 0.16293918
00000000: 3916 37be a286 dc3c 63b3 4ebd 3177 183e
00000010: 94de 33be dc29 8f3d 1184 903d 89b2 5c3d
00000020: a0b0 05bd fb31 5c3e 33d0 febd 5365 393e
00000030: 3848 b03d 6fd2 c93d 7df5 163e 6caf fd3c
00000040: 2038 1a3d ccf1 14bd be4a 30be ee8c a23d
00000050: 9274 033e f6d1 ab3d e1a6 2bbd d8d4 21be
00000060: f504 013a 1915 883d 0960 11be c20c 233e
00000070: bbec ccbc 9850 813d 726c 283e 2365 d13d
00000080: ea4c e2bd e752 9d3d 3b99 dc3d 8df2 cd3d
00000090: 4ab1 eabd a7d8 983c 70dc 15be 2f53 8cba
000000a0: 7abb 21be fc3f 1a3e ff69 623e bbe6 39be
000000b0: d533 e5bd d9db c3bd b318 05be a5ce 2d3e
000000c0: 1cdc 2cbe 3ad4 babd a21b 09be 1670 33bc
000000d0: bf85 04be 1d9a 17be 770b 493e a214 b73d
000000e0: 6622 df3d 3a23 073e 3581 5d3d e9ba c63c
000000f0: 191e 12be 7dad 0a3d 5ceb 1cbe 2766 d9bc
00000100: cd1d ebbd 8b59 d5bd 058c e0bd 3ed8 c7bd
00000110: c04f ccbd f8c4 dabd bd9c 4dbd 1100 4abe
00000120: 3326 0f3e f0ca 3e3d 545c 38be b74a 50be
00000130: 9d45 dfbd aea4 813d 1b6b 353e 7eed 01bc
00000140: 4cff dc3d f2ec 91bd db0b 42bd 0348 6cbc
00000150: 30a4 48be b4d3 c43b f9d5 2e3d 87b6 e53d
00000160: 8d38 2fbe 7dec abbd b366 543c 9a77 ae3c
00000170: 2e59 0d3d d314 f4bd f6d3 233e 7e41 16be
00000180: d16c 9dbd 6a6a bd3d a86a 71bd 7ddd b6bd
00000190: f888 33be dbb1 f83d c894 9ebc 5cff e73d
000001a0: f109 d53c abe3 31be 5c54 b6bd a345 023e
000001b0: 9a48 e8bd 78f6 8abd 8d06 073e a84f 6fbd
000001c0: 3cdd 163d 110f efbd 04d9 463d d65a 203d
000001d0: 371f 1fbe 9a23 09be 2fc3 873d e845 50bd
000001e0: 93b1 fe3d 4982 11bb 0948 a6bd d398 b9bc
000001f0: 2cc4 9ebd 9ff4 b23d 4722 1b3e 2ed1 cbbc
00000200: f1b3 02be 1551 0a3e b4e1 153e a155 ff3d
00000210: 6f3a babb bf16 063d 85ec 0e3c 5d40 8bbd
00000220: b972 48be 40ea 4abc 0328 ce3d d2cb d63d
00000230: cd6f 053d d17d a93d 9474 153e 9af3 5dbd
00000240: d902 fe3d 9230 17bc f9aa 63bd af56 98bd
00000250: e629 b8bd 3e6a 12be 1a0c 013d 9496 293e
00000260: c74a a13c 0744 eb3c 5925 7fbd 1b8a 58bd
00000270: b19e 5cbd 773f 4d3d 0896 243d 8d3f abbd
00000280: 1557 ee3c 71b6 08bd b4d9 533b b0ac f83d
00000290: a611 c9bd 293a 223e 21d5 cdbd bf2c 2c3e
000002a0: 4873 7b3d 5e61 833d 3002 15bd 0040 10bd
000002b0: 41bd 05be 9cb8 3bbe 41e7 e43d d388 443e
000002c0: 9538 873d 1df6 bbbd 7f0a 1d3d 8543 873b
000002d0: 684f 46be c964 1fbe e99b a53d cc8c 9bbd
000002e0: 279c bdbc 460a debd 0f5f b03d e8c5 a5bd
000002f0: 2e56 45bd 8f9b cb3d b535 2a3e 594a 273e
00000300: f039 843d f1d9 23bc 491b 083e 7672 303e
00000310: 8f19 803d 1d1f 493d 3474 683d 4ea4 863b
00000320: 5645 e03d 4f3d 2d3d e37c 45be c13b cdbd
00000330: 5ce6 2abe 3da1 8ebd e010 10bc 5492 8cbd
00000340: 67a0 4bbe 2607 06be 27ed 753d e5fa f1bb
00000350: 564b 33bd 4069 c63c daef 94bd 9690 e0bd
00000360: 907c b3bd 75b5 8dbd 133d 5bbe c671 25be
00000370: 6d43 b6bd 893e 893d 258d 473e 6848 32bc
00000380: 83a9 003e 5ce6 513d ab23 11be 2894 b7bd
00000390: e36a 2cbd d98c 3ebe 66b0 3a3c f070 073d
000003a0: 6895 2cbe 5085 54bd c3a1 3dbe 4435 593e
000003b0: 0009 cd3d c03d 9cbd 3a4b 203e 0388 02be
000003c0: 339d 323e cd07 51bd 61bc 053d 5207 1c3e
000003d0: 9ea1 af3d a2e9 083d 420a a2bc 740f 543d
000003e0: fa65 353e 9c78 00bd a41d 08bd 974f 6b3d
000003f0: f3eb f5bd 8139 64bd b9a3 0b3c 87d9 263e

weight f4 [256, 256, 3]
0.006512545 -0.029098859 0.015244003 -0.015159611 0.0055072918 0.0013043953 0.035105906 -0.0044320873
-0.009323584 -0.015265078 -0.0063389014 -0.025087139 0.030300945 -0.014277252 0.011199927 -0.02076798
-0.005877377 -0.0034004042 -0.019242171 0.01330384 -0.03768352 0.032390915 0.04078547 0.010717603
0.007631858 -0.024358833 -0.025491418 0.0075042676 0.018170744 -0.008913277 -0.025150297 0.0391176
-0.008892679 -0.0003023366 -0.0085397605 0.022435794 0.01620016 -0.029068843 -0.008777301 -0.029485445
0.014805503 0.026329419 -0.027951842 -0.01951742 -0.032613873 -0.0044059693 0.029353732 -0.020475395
0.0075159464 0.0074973092 -0.016680267 -0.005321209 0.012993774 -0.051161163 0.01811944 0.0111080045
0.038024526 -0.03671063 0.024459897 -0.019722477 0.024993777 -0.023962675 0.0014372704 -0.005251007
0.0064405752 0.017957622 0.012465063 -0.01734375 -0.034067497 0.016314527 0.056422994 0.051891014
-0.017896105 0.025138792 0.017630154 0.0071660983 0.02563195 -0.005343918 0.008378653 -0.019665467
-0.00031289342 0.029300272 0.015142493 -0.034321837 -0.009396128 0.017173458 -0.022489324 -0.012658393
0.00575809 0.023656754 0.026978428 -0.03290128 -0.040377967 0.07709749 0.08875237 0.07717449
0.029827321 -0.024523728 -0.0009783828 0.006349251 -0.022755692 0.025162132 -0.005110546 -0.018742535
-0.041138403 0.028635962 -0.04538919 0.022178276 -0.017055102 -0.010473345 0.00028680952 0.034977928
-0.03568224 -0.035440978 0.028793454 -0.0016083595 0.002022711 0.024248477 -0.011391388 0.024633758
-0.008358791 0.030192308 0.041494545 0.04617752 0.0068160044 0.027103532 -0.0023121936 -0.027578121
0.011793571 0.0050390335 0.015236567 -0.012684526 0.004913961 0.012338621 0.015694913 0.049364302
0.04821731 0.044429436 -0.0034331307 0.026325246 0.03529328 0.0065537957 -0.0017481763 -0.025723942
-0.026941987 -0.0053534047 -0.0333301 0.017799795 -0.026763618 -0.027914904 -0.0048370515 0.06667577
0.05506452 -0.03693231 -0.027591657 0.0052047567 -0.008126973 -0.030779487 0.019269688 -0.03389265
-0.0033648037 0.010726964 0.031856 -0.0330081 0.024178453 -0.003550618 0.03233867 0.025725806
0.003990606 0.007585488 0.007268096 0.02170304 -0.022358859 0.018081214 0.018120978 0.035133272
0.030672695 0.027710134 -0.033261266 -0.02026599 -0.019917715 0.027819108 0.012908494 0.0092416
0.0068093315 -0.004996347 0.018751392 -0.014594283 0.027116995 -0.03873409 -0.03954985 0.0056038788
0.041745543 -0.010047979 0.045546785 -0.007787942 -0.023630386 -0.00024824333 0.004721956 -0.03494131
0.012254157 -0.0137999 0.023055837 -0.021492884 -0.021380462 0.03996611 -0.01414874 -0.012433221
-0.005877309 0.036574896 0.026834736 0.052465957 0.013253926 0.014319621 0.0041576587 0.02350348
0.0030889253 0.021204086 0.019510623 0.0025084198 -0.039836716 0.0008528867 -0.022021798 0.010737482
0.0010481209 0.036931872 -0.020532936 -0.028481476 0.012213987 0.014031853 -0.018492315 0.0045659617
0.022746166 -0.0021454191 -0.013827905 0.017169748 0.024267087 -0.005953251 0.022859152 0.0095052
-0.013581391 -0.011699857 -0.04078644 0.022396699 -0.018782059 -0.025951117 -0.0019833078 -0.01706422
-0.028286273 -0.003545651 0.0005021461 0.015149955 0.009483287 -0.0004146795 0.012237576 -6.420819e-05
00000000: 3067 d53b bb60 eebc fcc1 793c 0460 78bc
00000010: 8376 b43b 3ef8 aa3a 36cb 0f3d 0b3b 91bb
00000020: f2c1 18bc 611a 7abc 8fb6 cfbb 8b83 cdbc
00000030: b039 f83c 23eb 69bc e67f 373c 9c21 aabc
00000040: 0397 c0bb 51d9 5ebb c2a1 9dbc 59f8 593c
00000050: 095a 1abd 56ac 043d aa0e 273d e398 2f3c
00000060: aa14 fa3b 2d8c c7bc 61d3 d0bc 5ce6 f53b
00000070: d0da 943c fe08 12bc ff07 cebc c739 203d
00000080: 99b2 11bc ee82 9eb9 5aea 0bbc 45cb b73c
00000090: 33b6 843c c821 eebc abce 0fbc 768b f1bc
000000a0: c892 723c cbb0 d73c 43fb e4bc ffe2 9fbc
000000b0: 2096 05bd f35f 90bb 3d77 f03c 04bc a7bc
000000c0: 5448 f63b fdab f53b 0ea5 88bc 895d aebb
000000d0: d7e3 543c 5e8e 51bd 386f 943c 59fe 353c
000000e0: 9bbf 1b3d e35d 16bd 1f60 c83c 0891 a1bc
000000f0: c0bf cc3c 5f4d c4bc cb62 bc3a a410 acbb
00000100: 760b d33b dd1b 933c 433a 4c3c 7b14 8ebc
00000110: 5c8a 0bbd 0ba6 853c cc1b 673d ac8b 543d
00000120: da9a 92bc deef cd3c 1d6d 903c 97d1 ea3b
00000130: 18fa d13c 091c afbb 9e46 093c 7919 a1bc
00000140: d80b a4b9 2007 f03c 3818 783c 0e95 0cbd
00000150: 38f2 19bc 5aaf 8c3c 883b b8bc 2665 4fbc
00000160: 5cae bc3b cfcb c13c dd01 dd3c 7ec3 06bd
00000170: 5e63 25bd 4ae5 9d3d cdc3 b53d a90d 9e3d
00000180: 6d58 f43c fce5 c8bc 143d 80ba 610d d03b
00000190: 256a babc d120 ce3c 5e76 a7bb f289 99bc
000001a0: be80 28bd f795 ea3c 04ea 39bd 37af b53c
000001b0: 24b7 8bbc 6598 2bbc ec5e 9639 0445 0f3d
000001c0: 8a27 12bd 8f2a 11bd 40e0 eb3c 97cf d2ba
000001d0: 768f 043b bea4 c63c f2a2 3abc bccc c93c
000001e0: 4ff3 08bc dc55 f73c 2ff6 293d a424 3d3d
000001f0: ca58 df3b 3a08 de3c 2c88 17bb 83eb e1bc
00000200: d239 413c 7a1e a53b cba2 793c c2d2 4fbc
00000210: 4b05 a13b ed27 4a3c 9e92 803c 3932 4a3d
00000220: 847f 453d a4fb 353d 60fe 60bb 0ba8 d73c
00000230: b08f 103d 39c1 d63b 1023 e5ba 04bb d2bc
00000240: 71b5 dcbc 9d6b afbb 2585 08bd e0d0 913c
00000250: 603f dbbc ccad e4bc 2180 9ebb 4e8d 883d
00000260: 568b 613d 5546 17bd e607 e2bc aa8c aa3b
00000270: ff26 05bc 4325 fcbc 77db 9d3c 05d3 0abd
00000280: 0a84 5cbb 26c0 2f3c 707b 023d 8033 07bd
00000290: e411 c63c 7cb1 68bb 8e75 043d edbe d23c
000002a0: a1c3 823b af8f f83b 3529 ee3b 93ca b13c
000002b0: ed29 b7bc 0e1f 943c 7272 943c e8e7 0f3d
000002c0: 4e45 fb3c 5d00 e33c f73c 08bd dd04 a6bc
000002d0: 7a2a a3bc e6e4 e33c 267e 533c 146a 173c
000002e0: d020 df3b 65b8 a3bb 859c 993c dc1c 6fbc
000002f0: 7624 de3c a3a7 1ebd 06ff 21bd bea0 b73b
00000300: 60fd 2a3d 47a0 24bc 448f 3a3d fe31 ffbb
00000310: 8394 c1bc a826 82b9 a3ba 9a3b 9e1e 0fbd
00000320: a9c5 483c fa18 62bc 98df bc3c d811 b0bc
00000330: 1426 afbc 81b3 233d 1ed0 67bc b5b4 4bbc
00000340: 7196 c0bb 8fcf 153d 85d4 db3c 8be6 563d
00000350: ff26 593c d89c 6a3c f83c 883b 5f8a c03c
00000360: 916f 4a3b 31b4 ad3c bed4 9f3c 4d64 243b
00000370: d32b 23bd 4294 5f3a 0f67 b4bc 44ec 2f3c
00000380: 1a61 893a e045 173d b034 a8bc fc51 e9bc
00000390: 2d1d 483c dbe5 653c 327d 97bc 109e 953b
000003a0: 2b56 ba3c 299a 0cbb 708e 62bc 92a7 8c3c
000003b0: c5cb c63c 7d13 c3bb 1e43 bb3c b3bb 1b3c
000003c0: 7c84 5ebc c2b0 3fbc af0f 27bd 4879 b73c
000003d0: d5dc 99bc 7097 d4bc 62fa 01bb 43ca 8bbc
000003e0: 9db8 e7bc 275e 68bb 74a2 033a 8437 783c
000003f0: ca5f 1b3c 5769 d9b9 1d80 483c 82a7 86b8

bias f4 [256]
0.025685405 -0.0042891465 -0.023457525 0.025145145 -0.020574458 -0.0021624963 -0.01772659 0.038406365
-0.037494224 0.036253426 0.015555863 0.0103227515 -0.014118125 -0.008992221 0.011932272 -0.015677437
0.016242972 -0.041649 0.028690366 0.0018840292 -0.01472495 -0.023062153 0.009417337 0.027321583
-0.029744113 -0.007255564 -0.015489067 -0.01100431 0.014890073 0.0060981475 -0.026310984 -0.010721727
-0.023571407 0.023665586 -0.02065749 -0.0022011863 -0.034909133 -0.012278869 -0.025409231 0.013834639
0.021387516 0.0006589213 0.014308411 -0.03661107 0.006597109 -0.020093858 -0.019111628 0.024871482
0.017751798 0.020042844 0.012018834 0.011948311 -0.029990241 0.017620027 0.02896031 0.032058217
-0.016402379 0.022489348 -0.02270311 -0.019789467 -0.011781826 0.014486404 -0.0433925 -0.024239792
-0.026331551 0.020725448 -0.004475729 -0.0050055883 0.020344278 -0.030857883 -0.01061056 0.0017339347
0.018653898 0.028884957 -0.036694698 0.023372166 -0.020374449 0.037093606 0.020370636 0.0081805205
0.008948656 -0.015367996 -0.03942934 -0.024491336 -0.037312064 -0.024669072 -0.019279819 0.009732172
0.0057270546 0.019361876 -0.020548165 0.0057638157 -0.014407029 -0.035925463 0.008129794 -0.032669276
0.014582305 -0.026676068 -0.031469237 -0.002724536 0.004494711 -0.030286456 -0.0068922048 -0.027292132
-0.015561615 0.009694103 0.014687931 -0.020224253 0.02858815 -0.026317487 0.029469004 0.004182745
-0.0009137456 -0.014060512 -0.005512612 -0.00017335323 -0.025149856 -0.003720033 -0.037379712 -0.01812461
0.0014693758 0.003394795 -0.0058619217 -0.013836054 -0.017903788 -0.035292335 0.004227607 -0.022957299
-0.019979715 0.028396465 -0.020534273 -0.032201868 0.020593254 -0.033099897 -0.009407782 -0.03339155
0.016549237 0.0036016586 0.01627152 -0.031166809 0.015572185 -0.027168123 -0.01531361 0.02405742
0.0266009 -0.028788399 0.015911318 0.022197397 5.887759e-05 0.0051722894 0.005387184 -0.041090455
0.015402243 -0.013764033 0.00035345997 -0.010673804 -0.037737373 -0.00066709484 -0.032547284 -0.020342903
-0.00018447611 0.011221482 0.013236898 -0.004831316 0.026851315 0.0027688143 -0.030191451 -0.03047976
-0.029755516 0.0027699627 -0.03370694 0.029281527 0.023880772 -0.029549375 0.020039054 -0.011593024
-0.0011830616 -0.011462111 -0.01830744 0.023222134 0.009808302 -0.03559805 0.027622377 -0.005521238
0.032941356 0.03230497 0.004020684 0.025325533 -0.031919103 0.01854918 0.0149650145 0.0053236526
-0.03542037 0.03151073 -0.024125261 -0.024339128 -0.00024976346 -0.031860925 -0.019126533 -0.021501364
-0.022534316 -0.03247018 0.0060164304 0.013268069 0.008151295 -0.024352018 -0.018039025 -0.02982746
-0.010917013 0.013161635 -0.018409291 0.03612236 0.010776313 0.022821937 -0.0050922898 -0.011325738
-0.0357729 0.0041769594 -0.04216793 -0.030184273 0.0059339395 0.021415384 0.018295454 -0.0049018646
-0.00899623 -0.0038666832 0.03254765 -0.015936844 0.003612473 -0.014647851 0.0118665565 0.018001283
-0.010978479 0.008707728 0.007405198 0.02139704 -0.029392486 0.013104743 -0.015278686 0.034349896
0.022287363 0.00061717734 -0.037753742 0.015530231 -0.015304906 0.010377949 -0.019155381 -0.0062892362
0.0004342499 0.013166433 0.006576335 -0.009361017 0.018861331 -0.036946487 0.009972773 0.01809541
00000000: 336a d23c f88b 8cbb ff29 c0bc 31fd cd3c
00000010: c48b a8bc abb8 0dbb 5b37 91bc fe4f 1d3d
00000020: 8b93 19bd 797e 143d 05de 7e3c c220 293c
00000030: b54f 67bc 1c54 13bc 947f 433c f86d 80bc
00000040: fb0f 853c 2498 2abd 0f08 eb3c 88f1 f63a
00000050: eb40 71bc d7ec bcbc 2d4b 1a3c 83d1 df3c
00000060: eda9 f3bc 15c0 edbb dbc5 7dbc 6c4b 34bc
00000070: 7ef5 733c f8d2 c73b 228a d7bc 2faa 2fbc
00000080: d318 c1bc 55de c13c e539 a9bc c741 10bb
00000090: e1fc 0ebd 4f2d 49bc 0527 d0bc afaa 623c
000000a0: df34 af3c 76bb 2c3a d36d 6a3c 7df5 15bd
000000b0: 902c d83b e09b a4bc fd8f 9cbc 47bf cb3c
000000c0: 386c 913c e430 a43c a5ea 443c d9c2 433c
000000d0: 18ae f5bc e057 903c 2c3e ed3c 7a4f 033d
000000e0: 485e 86bc 953b b83c dffb b9bc 851d a2bc
000000f0: 8f08 41bc 6258 6d3c 56bc 31bd 8792 c6bc
00000100: 44b5 d7bc 6ac8 a93c 23a9 92bb eb05 a4bb
00000110: 0ba9 a63c acc9 fcbc ead7 2dbc 3245 e33a
00000120: 0fd0 983c 25a0 ec3c 2e4d 16bd fc76 bf3c
00000130: 51e8 a6bc 77ef 173d 52e0 a63c 9707 063c
00000140: 629d 123c 0cca 7bbc a980 21bd 0ea2 c8bc
00000150: 89d4 18bd cb16 cabc b6f0 9dbc b073 1f3c
00000160: 04aa bb3b cc9c 9e3c a054 a8bc 64de bc3b
00000170: 760b 6cbc 9426 13bd d432 053c 38d0 05bd
00000180: 9fea 6e3c c587 dabc e3e5 00bd 218e 32bb
00000190: 5e48 933b 4d1b f8bc 01d8 e1bb c093 dfbc
000001a0: 25f6 7ebc 04d4 1e3c a6a5 703c 55ad a5bc
000001b0: b231 ea3c c597 d7bc fb68 f13c 680f 893b
000001c0: 6e88 6fba 105e 66bc 24a3 b4bb 27c6 35b9
000001d0: 1207 cebc cccb 73bb 781b 19bd 107a 94bc
000001e0: 1298 c03a 367b 5e3b 5d15 c0bb 9eb0 62bc
000001f0: f7aa 92bc b28e 10bd bd87 8a3b f210 bcbc
00000200: 80ac a3bc b49f e83c 7e37 a8bc 1be6 03bd
00000210: 2fb3 a83c c293 07bd 1923 1abc 94c5 08bd
00000220: 4492 873c ce09 6c3b da4b 853c 8951 ffbc
00000230: 7a22 7f3c af8f debc f0e5 7abc 1114 c53c
00000240: 21ea d93c a6d5 ebbc 7458 823c 51d7 b53c
00000250: 55f3 7638 4f7c a93b fa86 b03b 774e 28bd
00000260: b059 7c3c 8a82 61bc 9850 b939 2ee1 2ebc
00000270: 8192 1abd fadf 2eba 4d50 05bd 29a6 a6bc
00000280: ee6f 41b9 4fda 373c 93df 583c 0450 9ebb
00000290: 4af7 db3c ff74 353b 1054 f7bc b1b0 f9bc
000002a0: d7c1 f3bc 4388 353b 4a10 0abd d0df ef3c
000002b0: 9ca1 c33c 8811 f2bc f128 a43c abf0 3dbc
000002c0: f610 9bba 94cb 3bbc 7cf9 95bc 583c be3c
000002d0: 00b3 203c 43cf 11bd 5348 e23c 80eb b4bb
000002e0: 84ed 063d 3752 043d f1bf 833b 7e77 cf3c
000002f0: 9bbd 02bd 73f4 973c d22f 753c 0972 ae3b
00000300: f314 11bd 6511 013d 57a2 c5bc da62 c7bc
00000310: aff2 82b9 9a80 02bd 3faf 9cbc a123 b0bc
00000320: e399 b8bc 74ff 04bd 7a25 c53b 5162 593c
00000330: 028d 053c e27d c7bc 94c6 93bc b858 f4bc
00000340: 45dd 32bc e6a3 573c 15cf 96bc 0af5 133d
00000350: 228f 303c 12f5 ba3c 39dd a6bb 978f 39bc
00000360: 9b86 12bd e0de 883b 48b8 2cbd 0245 f7bc
00000370: 7e71 c23b 516f af3c 59e0 953c d29f a0bb
00000380: ec64 13bc 2e68 7dbb af50 053d fc8d 82bc
00000390: 3dbf 6c3b 8afd 6fbc f26b 423c 6d77 933c
000003a0: 14df 33bc dcaa 0e3c 4ea7 f23b d848 af3c
000003b0: 83c8 f0bc 47b5 563c 7453 7abc 7ab2 0c3d
000003c0: fd93 b63c 12ca 213a aba3 1abd 8372 7e3c
000003d0: 6ec1 7abc 4608 2a3c bfeb 9cbc f015 cebb
000003e0: 09ac e339 06b8 573c 4c7e d73b f35e 19bc
000003f0: 1483 9a3c 3355 17bd d764 233c d33c 943c

weight f4 [1, 256]
0.0032514485 0.06286781 -0.012765513 -0.049673624 -0.06067356 -0.05755679 0.07938554 0.02114848
0.036462806 0.035942562 0.018093044 0.020787684 -0.04608884 0.04393542 0.0273111 -0.053466745
-0.0038133268 -0.035224997 0.040667158 -0.053525254 0.014657345 -0.04024562 -0.053870372 0.03946671
0.029877307 0.08881237 -0.0036921173 0.050226416 -0.0015419039 -0.005231585 0.0152846575 -0.04047208
-0.0633982 -0.036724273 0.0027103252 -0.026458368 0.015976798 0.041028902 0.002062653 -0.047043536
-0.034854904 -0.013546461 0.018542288 -0.0037664296 0.024161082 0.022060279 -0.061464578 0.046469033
0.011856699 0.03979842 0.0020239719 0.040151145 0.015548622 -0.009791989 -0.023381 -0.03553822
-0.04742753 0.057522427 -0.020897146 0.027422754 -0.14633606 -0.08017934 -0.058540102 -0.012660552
0.012475384 -0.021323627 0.04950543 -0.019495234 0.035021808 -0.06060398 -0.040648233 -0.013309199
0.0575209 -0.014318209 0.0080473395 0.035639726 -0.036523845 0.007941612 -0.05293423 -0.037222877
-0.004880911 -0.012921894 -0.04090716 -0.039096974 -0.053801134 0.06090106 -0.07685173 0.029411856
0.009412161 0.03048583 -0.022755293 0.028722322 0.03347598 -0.008496593 -0.03458913 -0.04833055
-0.121450275 0.016180634 -0.0013599634 -0.005060249 0.015898632 0.026243228 0.028111454 -0.00035057362
0.052940037 0.007541271 0.019247176 0.021391777 -0.018983321 -0.007432977 -0.0050546774 0.0211972
-0.011425179 -0.017040642 0.051092915 -0.059567887 -0.028369032 -0.033204246 0.013934185 -0.049820084
-0.09564082 -0.020891357 0.00551481 0.010069342 -0.04630009 0.081551515 -0.006880942 -0.056794815
-0.035071574 -0.01925896 0.028151516 0.004593126 -0.05148391 0.0051634856 0.014346224 -0.14324263
0.0031812938 0.037163597 0.0495403 -0.0015934887 -0.0019058081 -0.0063004903 0.02387335 0.012245169
0.030469298 -0.09160611 -0.010649187 -0.013306478 -0.0559331 -0.076993264 -0.0014960429 -0.05693746
-0.015163096 -0.0013907843 -0.030802995 -0.0064315014 -0.011869984 -0.032543868 0.045962222 0.02872612
-0.0555464 -0.08989911 0.011258492 -0.007014433 0.0190929 0.023680218 0.044648994 -0.0052694688
0.13438007 -0.0074251825 0.002935264 0.024635367 0.032394294 0.03891968 0.012923445 -0.015549737
0.013825237 0.045072373 -0.106579974 -0.08574834 -0.010110009 -0.05908935 -0.009038166 0.010827261
0.019160464 0.017657071 -0.0061049145 -0.025393736 0.032400023 -0.01827904 0.01825353 0.009713119
-0.035564795 0.032892354 -0.0074077994 -0.11828341 -0.050184228 0.002598269 -0.033162165 -0.0014424116
-0.045491047 -0.0030443883 0.0076485337 0.049568556 -0.0029824562 -0.029246569 -0.03098413 -0.046213597
0.022951385 -0.0017282699 -0.0026815496 0.04590348 0.03460919 0.056252625 -0.022313768 0.039431617
-0.044080433 0.05419982 -0.03261755 0.00057299354 0.040441293 -0.058009513 0.0014924092 -0.10712924
0.00379386 0.015088529 -0.0018316254 0.04590788 0.003832373 -0.05630054 0.02735751 -0.056934487
0.014965495 0.039581057 -0.046164136 -0.01669233 0.016777698 0.05423085 0.010612745 0.06335275
-0.020738471 0.028645286 0.03641208 -0.0054712705 0.023364875 -0.0519319 -0.050463375 -0.007029174
0.048257507 -0.026315033 -0.024030913 -0.03283597 -0.004932109 -0.11698288 -0.06853389 0.01045955
00000000: 4116 553b d7c0 803d 7126 51bc 9276 4bbd
00000010: d784 78bd abc0 6bbd e394 a23d 943f ad3c
00000020: 065a 153d 8238 133d dd37 943c ef4a aa3c
00000030: a7c7 3cbd a1f5 333d 87bb df3c f2ff 5abd
00000040: 02e9 79bb 1648 10bd 9b92 263d 4c3d 5bbd
00000050: 5c25 703c 97d8 24bd 2ea7 5cbd d8a7 213d
00000060: 41c1 f43c 43e3 b53d 73f7 71bb 37ba 4d3d
00000070: b619 caba b76d abbb 806c 7a3c 0dc6 25bd
00000080: ead6 81bd 316c 16bd b69f 313b 38bf d8bc
00000090: c6e1 823c ec0d 283d 932d 073b b9b0 40bd
000000a0: 04c4 0ebd faf1 5dbc ffe5 973c 34d6 76bb
000000b0: 76ed c53c c2b7 b43c 48c2 7bbd 5056 3e3d
000000c0: 9a42 423c ab03 233d 9da4 043b 8775 243d
000000d0: a6bf 7e3c 946e 20bc 8389 bfbc 8690 11bd
000000e0: 5f43 42bd a39c 6b3d 7e30 abbc afa5 e03c
000000f0: 1fd9 15be 1135 a4bd bfc7 6fbd 346e 4fbc
00000100: 8e65 4c3c e3ae aebc 35c6 4a3d 78b4 9fbc
00000110: 0773 0f3d e13b 78bd c37e 26bd d40e 5abc
00000120: 099b 6b3d ec96 6abc fdd8 033c f6fa 113d
00000130: 079a 15bd 891d 023c 90d1 58bd 0477 18bd
00000140: 0df0 9fbb 5ab6 53bc 448e 27bd 2624 20bd
00000150: 945e 5cbd 6473 793d 7164 9dbd 22f1 f03c
00000160: 7735 1a3c 6bbd f93c 4f69 babc 134b eb3c
00000170: 1c1e 093d 4b35 0bbc 55ad 0dbd 41f6 45bd
00000180: ecba f8bd 408d 843c cd40 b2ba 72d0 a5bb
00000190: d93d 823c 0afc d63c fe49 e63c 32cd b7b9
000001a0: a7d7 583d c41c f73b 41ac 9d3c cf3d af3c
000001b0: e982 9bbc 5590 f3bb b5a1 a5bb c0a5 ad3c
000001c0: ad30 3bbc d198 8bbc ce46 513d 75fd 73bd
000001d0: 2c66 e8bc 2d01 08bd 354c 643c 2510 4cbd
000001e0: 56df c3bd 5a24 abbc 94b5 b43b e2f9 243c
000001f0: 2aa5 3dbd 7b04 a73d 8679 e1bb aea1 68bd
00000200: 36a7 0fbd f7c4 9dbc 029e e63c ef81 963b
00000210: cbe0 52bd 7532 a93b 6d0c 6b3c 32ae 12be
00000220: 417d 503b db38 183d c5ea 4a3d 9cdc d0ba
00000230: 4fcc f9ba 5874 cebb 0b92 c33c f69f 483c
00000240: c09a f93c fc9b bbbd ed79 2ebc 6a03 5abc
00000250: 1b1a 65bd a5ae 9dbd df16 c4ba 4137 69bd
00000260: a26e 78bc fa4a b6ba 9056 fcbc 58bf d2bb
00000270: 527a 42bc b84c 05bd e242 3c3d 0a53 eb3c
00000280: 9f84 63bd 061d b8bd 8a75 383c 54d9 e5bb
00000290: b768 9c3c 04fd c13c dde1 363d 82ab acbb
000002a0: ee9a 093e f24e f3bb 8f5d 403b 1cd0 c93c
000002b0: e1af 043d 3e6a 1f3d dbbc 533c 53c4 7ebc
000002c0: 3f83 623c cf9d 383d 9a46 dabd d39c afbd
000002d0: 74a4 25bc ad07 72bd d114 14bc d364 313c
000002e0: 68f6 9c3c 90a5 903c bc0b c8bb 8606 d0bc
000002f0: e3b5 043d edbd 95bc 6d88 953c c623 1f3c
00000300: 64ac 11bd 22ba 063d 20bd f2bb 933e f2bd
00000310: fa8d 4dbd b847 2a3b 0dd5 07bd 4d0f bdba
00000320: d254 3abd 5c84 47bb 8da0 fa3b 6608 4b3d
00000330: 5075 43bb 8096 efbc 6ed2 fdbc 784a 3dbd
00000340: 8b04 bc3c 1d87 e2ba f0bc 2fbb 4a05 3c3d
00000350: 5ec2 0d3d 2769 663d 5dcb b6bc 0c83 213d
00000360: af8d 34bd a100 5e3d fb99 05bd f234 163a
00000370: c5a5 253d 629b 6dbd f19c c33a 9366 dbbd
00000380: 69a2 783b e135 773c 2613 f0ba e709 3c3d
00000390: 8d28 7b3b 659b 66bd db1c e03c 2334 69bd
000003a0: d631 753c bf1f 223d 9b16 3dbd 5abe 88bc
000003b0: 6271 893c 2b21 5e3d 14e1 2d3c 16bf 813d
000003c0: bae3 a9bc 85a9 ea3c d524 153d 5848 b3bb
000003d0: b267 bf3c 8bb6 54bd afb2 4ebd fc54 e6bb
000003e0: aaa9 453d a092 d7bc 7adc c4bc 037f 06bd
000003f0: 879d a1bb b894 efbd 7f5b 8cbd 885e 2b3c
