models/2025-09-18_backprophet_cnn.pth (torch, 10331 bytes, 3 tensors)

weight f4 [256, 1, 2, 2]
000000 35 a3 c0 3e cf 65 d1 3e 35 3b fc bd 85 14 e8 3e
       0.37624517 0.40897986 -0.1231598 0.45328155
000010 8c 24 4f be 8f ea 77 3e b1 ba ac be bd 4c dc 3e
       -0.20228785 0.24210571 -0.33736184 0.43027297
000020 36 ba d4 3e 66 9c bc be f8 5f d1 3e 30 65 c0 3d
       0.41548318 -0.36838073 0.4089353 0.093943
000030 bc 4e cf 3e 5c 28 3a be b8 b1 7c 3e 42 21 a4 be
       0.40489757 -0.18179458 0.2467717 -0.32056624
000040 ca 21 c2 3e 00 8f 8a 3d 8d 18 74 be 08 e8 f8 3d
       0.37916404 0.06765556 -0.2383749 0.121536314
000050 9a 8a 67 be 7f 59 70 bd 57 17 4b be d5 82 a0 3e
       -0.22611466 -0.0586791 -0.19833122 0.31349817
000060 61 5c 07 bf c1 ed 86 be 0b 64 85 be 8d 9a b8 be
       -0.52875334 -0.26353267 -0.2605289 -0.36055413
000070 d1 69 16 3e aa d5 34 bf f1 fb 07 3f 49 e0 26 bf
       0.14688803 -0.70638525 0.5311881 -0.6518598
000080 8a 3a db 3e ec 83 d0 3d db bc ed bd e2 eb aa 3e
       0.428181 0.10181412 -0.11608287 0.3338309
000090 2a 6f 64 3e 76 63 fa 3e 80 1d cb 3d 0f 4a 5b be
       0.2230803 0.48904008 0.09917736 -0.2141497
0000a0 dd 14 0a 3e 45 9f 10 be 3c a0 58 3e 50 34 e5 3e
       0.13484521 -0.14123257 0.21154875 0.44766474
0000b0 bb f9 94 3e 72 d9 5d be a3 c5 94 3e c5 2f bb 3d
       0.2909678 -0.2166498 0.29057035 0.09139971
0000c0 35 5c 86 3e 83 72 a9 be 9e 31 f9 be 97 30 61 be
       0.26242223 -0.33095178 -0.48670667 -0.21991192
0000d0 1a b6 a4 be 27 90 03 3f 82 80 80 3e 0e 6b a2 3e
       -0.32170182 0.51391834 0.25098044 0.317223
0000e0 27 a8 45 3e 2f da 6c be e1 cf d7 3e 81 f1 13 bf
       0.19302426 -0.23130105 0.42150787 -0.5779038
0000f0 cc ed 9b 3e 55 83 37 bf 4e 7b d8 3e 48 10 08 bf
       0.30454862 -0.7168477 0.42281574 -0.53149843
000100 2a c4 92 3e ef f5 9b be bb b8 18 3f 0f c9 ed be
       0.28665286 -0.3046107 0.59656876 -0.46442458
000110 79 e3 9a be 3a db 9a be 0d e7 e3 3e 03 ea 25 3e
       -0.30251673 -0.30245382 0.44512215 0.1620255
000120 d1 c4 0f 3f 4e 38 b7 bd c1 ef 05 bf c3 6b 92 3c
       0.56159693 -0.08946286 -0.5231896 0.01787365
000130 d4 34 a5 be 4b 7c 50 3e 83 7a 48 3e 73 50 d5 3e
       -0.32266867 0.20359914 0.19577985 0.4166294
000140 2f 4d 84 be 29 cb ae be 19 e6 af 3e 2f 6e 58 be
       -0.25840136 -0.34139374 0.34355238 -0.21135782
000150 00 7d 03 3f de 15 15 bf a9 78 02 3f 75 24 54 bf
       0.5136261 -0.5823649 0.5096536 -0.8286813
000160 66 1e 87 be 35 ed 42 3e 2a 8d c8 3d de 8b b7 bd
       -0.2639038 0.190358 0.0979255 -0.089622244
000170 fb a6 99 3e bb e8 ae 3e 30 4a b7 be e0 9a 87 be
       0.30010208 0.34161934 -0.35798788 -0.26485348
000180 31 c8 d8 3e 35 4c 10 be 8b 39 65 be e4 40 e3 be
       0.42340234 -0.1409157 -0.22385232 -0.44385445
000190 f5 5e 8f be 3e 5d 06 3e 57 76 74 bd 1b 98 b6 be
       -0.28002134 0.13121507 -0.05968317 -0.35662922
0001a0 6e d9 1a 3c 35 13 a4 be c9 41 d6 be a0 b8 82 be
       0.009451253 -0.32045904 -0.41847065 -0.25531483
0001b0 45 6e a5 be 09 09 c1 be ef 3c 2d 3f 6d 6e a7 3c
       -0.3231069 -0.37702206 0.676711 0.020438397
0001c0 31 31 35 3e 5f 0f e3 be 4d 6d 9c be ff 01 13 be
       0.17694546 -0.44347665 -0.3055214 -0.1435623
0001d0 db 0a ca 3d d0 c7 d6 be d1 a5 47 be a2 c7 8e be
       0.09865352 -0.4194932 -0.19496848 -0.27886683
0001e0 88 1e af 3b 55 54 38 be 77 fa fb bc 20 6b aa be
       0.005344216 -0.1800092 -0.03075908 -0.33284855
0001f0 f3 65 ac be 5b 07 92 be 87 9e 28 be eb bb c6 be
       -0.3367153 -0.28521237 -0.16466723 -0.38815245
000200 5d 26 d6 3e 27 30 3e be 32 7b db 3e 66 b6 71 3d
       0.41826144 -0.18573056 0.42867428 0.05901184
000210 a2 45 f0 be ee d5 eb 3e 6d db d9 bd d6 b5 08 be
       -0.46928126 0.46061653 -0.10637555 -0.13350615
000220 da 80 d1 be aa 82 fb be 4d 0c 0f 3e 0a 34 d4 bd
       -0.40918618 -0.49123126 0.13969536 -0.10361488
000230 b9 98 cd 3e 9c bd 38 bf 4f fa 12 3f c6 7e 31 bf
       0.4015558 -0.7216432 0.5741319 -0.69334066
000240 97 c0 75 3e 17 50 62 3e b4 fa 13 3f f7 69 06 3f
       0.23999248 0.22100864 0.5780442 0.5250544
000250 22 e3 e9 3e 49 fe cd be 65 ac 02 3e a5 7f 60 be
       0.456811 -0.40233067 0.12761076 -0.21923693
000260 8f a2 7d bd 0c 15 c9 be 15 32 e6 3e be 22 c4 be
       -0.061922606 -0.3927387 0.44960085 -0.38307756
000270 91 f3 86 3e 90 33 30 3e 4c a4 22 3e 05 46 8c be
       0.263577 0.1720717 0.15882987 -0.2739717
000280 36 c9 21 3f bd 5c e7 bd b2 60 45 3e 85 93 18 bf
       0.6319765 -0.11296985 0.19275168 -0.59600097
000290 18 56 52 3e f3 cf a2 bd b0 27 6f be b4 97 d9 3e
       0.20540655 -0.079498194 -0.23354983 0.42498553
0002a0 ff 70 03 3e 3a fe 84 be 07 da 71 be a5 19 e5 bb
       0.12836073 -0.2597521 -0.23618327 -0.0069915825
0002b0 5c df 90 3e ab f3 fd bd b2 0f 90 be 62 73 2b be
       0.2829541 -0.123999916 -0.28136975 -0.16743234
0002c0 e9 84 c1 be 27 1c 2d 3e a5 e1 c3 3e 7c ef f9 be
       -0.37796715 0.1690527 0.3825809 -0.48815525
0002d0 ab 1c e4 3d ba d1 81 3e f3 f7 af 3d 19 31 3b be
       0.111382805 0.2535532 0.085922144 -0.18280448
0002e0 52 3b 86 3e 5a 25 87 3e f7 ad 40 3e 19 7b b1 bd
       0.26217133 0.26395684 0.18816362 -0.08666057
0002f0 5f ed 03 be c4 b3 69 3d 69 97 ad bd e5 ec 14 be
       -0.12883519 0.057056203 -0.08476145 -0.14543493
000300 13 47 a0 3e f2 a3 d8 3e c0 cc 67 bd c0 43 f4 bd
       0.31304225 0.4231258 -0.05659175 -0.11926985
000310 88 12 08 3c 69 4c ec bc 5f 3f f8 3d 3f 83 10 3e
       0.008305199 -0.028845029 0.12121462 0.14112566
000320 34 de 89 be a0 bf 72 bd fb e5 1b 3f 17 8a ba 3e
       -0.2692734 -0.05926478 0.608978 0.3643348
000330 b6 6f a4 be 39 e7 90 be d6 f7 1b bf 88 19 e7 be
       -0.3211648 -0.2830141 -0.6092504 -0.45136666
000340 e0 aa 8c be 94 fa 6f 3e ac f5 46 3e fa 59 99 3e
       -0.27474117 0.23435432 0.19429654 0.2995146
000350 2c be 07 bf 3a bd e5 bd 47 9b 1d be 74 a5 25 3f
       -0.53024554 -0.11217733 -0.15391265 0.64705586
000360 24 a6 8e 3d 55 55 07 be f7 14 51 3e 6d c0 45 be
       0.069652826 -0.13216145 0.20418154 -0.19311686
000370 51 ad b0 be f3 94 17 3f 9c b9 82 be a5 a7 0c 3e
       -0.3450723 0.59211653 -0.25532234 0.13735826
000380 5f e7 1d bf 06 b3 fb 3e 73 aa 51 3e 6a 26 ac 3e
       -0.6168117 0.49160022 0.20475177 0.33623058
000390 0b 4f 5e bd c7 33 2d bf 18 7a 9f be 65 8f 40 3f
       -0.0542746 -0.6765713 -0.31147838 0.752188
0003a0 d6 24 8f 3e bf 55 00 3f 10 b1 9a 3e 00 1f 56 3e
       0.2795779 0.5013084 0.30213213 0.20910263
0003b0 db 1f b2 bb 48 f7 c2 be 2e 9c db be c4 b9 ef be
       -0.0054359264 -0.38079286 -0.42892593 -0.46821415
0003c0 2f f5 ed 3e 8f 59 30 bf 0e 37 56 3e 22 9d 37 bf
       0.46476123 -0.68886656 0.20919439 -0.7172414
0003d0 50 cd 8b bd c8 47 aa be 86 01 a1 be 29 eb 3a 3e
       -0.068262696 -0.3325789 -0.31446475 0.18253769
0003e0 fe ea 15 be 21 2a 9f 3e ec 01 22 be 7b ab ba be
       -0.14640424 0.3108683 -0.15821046 -0.36458954
0003f0 1f 9f 5c be 81 16 be be 82 05 90 be 82 d0 1d bf
       -0.21545075 -0.37126544 -0.28129202 -0.6164628

bias f4 [256]
000000 94 19 8f 3e 13 02 52 3d 54 63 38 3e 16 c0 ab be
       0.27949202 0.05127151 0.1800664 -0.33544987
000010 85 da 9f 3d d1 61 9f be 2c 57 9f 3e 0e 2f a1 be
       0.07805351 -0.31129315 0.31121194 -0.31481212
000020 9c 43 5b bd 5d e8 d0 be 5a ee 55 bc d6 17 ee 3e
       -0.053531274 -0.4080228 -0.013057316 0.4650256
000030 0d 6a 61 3e 44 3f 64 be 4c ee 58 bd 98 4a 9e 3d
       0.22013111 -0.22289759 -0.052961633 0.077290714
000040 dd b1 e6 be d6 6f ca 3e 18 f8 9a bb 8e 1e c7 3d
       -0.45057574 0.3953845 -0.004729282 0.09722625
000050 54 1c 40 be ff 59 83 bd f7 4a af 3d fe 9a 30 3e
       -0.18760806 -0.0641365 0.0855922 0.17246625
000060 31 af 1f 3e 88 e2 76 be 72 49 f8 3e 14 46 2d be
       0.15594174 -0.24109852 0.48493534 -0.16921264
000070 5a 7d 84 be 34 fa 41 be b8 97 f7 3e dc 10 10 ba
       -0.25876886 -0.18943101 0.4835794 -0.00054956763
000080 56 98 00 be 77 b0 73 be ed ff 0a be 22 27 ec be
       -0.12558112 -0.23797785 -0.1357419 -0.46123606
000090 4d 89 ba be c8 d9 88 3e 98 73 dc 3e 2e b0 e9 3e
       -0.36432877 0.26728654 0.4305694 0.45642227
0000a0 a6 00 d4 be 95 a8 7e 3e 88 69 8d be b2 f4 91 3e
       -0.41406745 0.24868996 -0.27619576 0.28507
0000b0 8a e4 b8 3e 8b c0 c7 3e d2 af b2 3e b4 7a 9c 3e
       0.3611186 0.39014086 0.34899765 0.30562365
0000c0 d8 76 22 3c 35 4c 5f 3e 3e 32 18 be ad f4 ba 3e
       0.00991603 0.21806414 -0.14862916 0.36514798
0000d0 cc 7e 9f bd f3 35 b0 3d 40 7a da be c8 8e 63 3d
       -0.077878565 0.0860404 -0.42671394 0.05555609
0000e0 6b 90 ad bd c0 7a 76 bd 69 54 57 be d6 03 e0 be
       -0.08474811 -0.060175657 -0.21028294 -0.43752927
0000f0 e3 7e 11 3e 21 23 af 3e 85 d0 e1 3e dc a7 82 3e
       0.1420856 0.3420649 0.441044 0.25518692
000100 c8 10 17 be ad b4 09 bf 5b 4a 40 3e 2c ee 2b 3e
       -0.14752495 -0.53791314 0.18778364 0.16790074
000110 eb 3b c1 be 73 5a 62 3e 71 58 c9 3e 15 8a a7 3d
       -0.37741026 0.22104816 0.39325288 0.08180634
000120 da 57 9a be 52 89 d8 3e 9a 22 5b 3e 94 ff 9e 3e
       -0.3014515 0.42292267 0.21399918 0.31054366
000130 4c 79 d3 be fc 2b 90 3e cb 30 0e be 05 83 fa 3e
       -0.4130348 0.28158557 -0.138858 0.48928085
000140 fb 75 7e be 06 5d ea 3e e9 da 9d 3d 8c c9 2b 3e
       -0.24849693 0.45774096 0.077077694 0.16776103
000150 a2 4d 28 3d 87 20 8a 3e 3d 57 81 be 10 25 ed be
       0.04108966 0.2697794 -0.2526187 -0.4631734
000160 f1 8c 4d bd 88 30 c4 3e 54 fc 8c bd 83 05 17 3e
       -0.05018324 0.38318276 -0.06884065 0.14748196
000170 93 10 8a be 82 b7 af 3e 46 d9 93 3e d6 c7 27 3e
       -0.2696577 0.34319693 0.28876704 0.16384825
000180 d6 73 85 be fb 7e c1 be 01 63 5d 39 f2 c3 96 be
       -0.26064938 -0.3779219 0.00021113084 -0.2944637
000190 83 f7 cd 3e 8a 9f f1 be 3c 7d 57 3e 23 3f 00 3f
       0.402279 -0.4719203 0.21043867 0.5009634
0001a0 f0 0b 62 3e c3 e6 37 3e 1c 30 f2 be 1c c9 ef 3e
       0.22074866 0.17959122 -0.4730233 0.46833122
0001b0 c2 d1 74 3d b3 03 eb be 6b a0 fb 3e db cf 2e bd
       0.059770353 -0.4590126 0.49145827 -0.042678695
0001c0 6d fc 99 3d 08 00 ea 3e 27 1c ab be 60 7a ad be
       0.075188495 0.4570315 -0.33419916 -0.33882427
0001d0 1c de 53 3e d2 04 b5 bd 7a 09 ef 3d c8 35 d2 be
       0.20690197 -0.0883881 0.116717294 -0.41056657
0001e0 3b fe 13 3e 52 ed 4e be 2d 6c 9c be 71 14 db be
       0.1445245 -0.20207718 -0.30551282 -0.42789033
0001f0 7c 97 88 3e 06 8b c5 3d 83 73 d0 be 53 42 cf 3e
       0.26678073 0.09645657 -0.40713128 0.4048029
000200 db 37 8b 3e a5 54 76 bd 35 c3 c9 bd 37 1a 07 bd
       0.27191052 -0.060139317 -0.09851686 -0.032983985
000210 2c 83 e9 3e 9a 56 af 3e eb 22 b3 be 74 d5 e0 3e
       0.4560789 0.3424576 -0.34987578 0.43912852
000220 d5 94 18 3d ae 24 5d 3e a9 76 c1 3e 2c 05 d4 3e
       0.037251312 0.21596023 0.37785843 0.41410196
000230 ae 3b 9f be 6e 1b c9 3e b6 d7 9c be 8a c2 0f 3d
       -0.3110022 0.3927874 -0.30633324 0.035097636
000240 17 b9 b2 be 54 4f 0e be b1 cc 64 3d 86 52 fb bd
       -0.34906837 -0.13897449 0.05585927 -0.122715995
000250 6a ef 85 bd 03 5f 74 3d 67 65 fe 3e f3 99 92 3e
       -0.06539805 0.059660923 0.4968674 0.2863308
000260 f5 ce 87 3e 19 dd 43 3e e0 01 c8 3e f0 72 95 39
       0.26525083 0.19127311 0.3906393 0.0002850513
000270 73 fc 98 3c 3d ce 2c 3e 26 df dd be c4 09 cc be
       0.018675065 0.16875549 -0.4333431 -0.398512
000280 43 c2 6b 3d f9 fd 27 be 3b 00 a4 3d 5a 97 42 be
       0.05755831 -0.16405477 0.080078565 -0.19003049
000290 9e 90 b6 3d c7 0f bd 3e 19 57 e6 bd c9 ea c7 3e
       0.08914302 0.369261 -0.11247081 0.39046314
0002a0 f1 5c cb 3e 75 42 be be b2 e2 b9 be 7d 74 cc be
       0.39719346 -0.37160078 -0.36305767 -0.39932624
0002b0 2f 31 a3 be bd 99 12 be 3f 3e 29 bd 57 ea 2e be
       -0.31873462 -0.14316459 -0.041319128 -0.17081581
0002c0 96 75 a5 bd 12 f8 f7 3c 55 41 28 be b5 38 f4 3e
       -0.08079068 0.030269656 -0.16431172 0.47699514
0002d0 84 51 43 be b1 46 b7 be b0 ff 86 3e c4 d0 62 bd
       -0.19074064 -0.3579612 0.2636695 -0.055374876
0002e0 fd 27 c5 3e 7b 85 9f 3e 5c f3 e6 3e 7c a2 d2 be
       0.3850707 0.31156525 0.45107543 -0.4113959
0002f0 d7 52 a0 3e 53 8d d2 3e 66 ed 5c be 0a eb e5 3e
       0.31313202 0.41123447 -0.21574935 0.44905883
000300 17 4c a8 3e 5f 09 94 3d 79 9f 6c 3e ee 9a 45 bd
       0.32870552 0.0722835 0.23107709 -0.048243456
000310 e9 75 d6 be 07 f0 8a 3d 46 81 e1 3d 93 12 d9 be
       -0.41886833 0.06784063 0.11010985 -0.42396984
000320 d8 21 82 3e 40 5d db be 59 d0 dd 3e e9 bc f8 3e
       0.25416446 -0.42844582 0.4332302 0.48581627
000330 9e da f6 3d 1c f8 a1 be dd bc 70 3e 2a 07 a7 3d
       0.12053417 -0.31634605 0.23509546 0.08155663
000340 c1 2e 31 3e 95 73 05 3e 48 f0 d9 3e 8f b9 51 be
       0.17302991 0.13032372 0.42566133 -0.20480941
000350 eb fe 2a be 04 8a 44 3e 12 f8 5c 3d a4 ac cf 3e
       -0.16698806 0.19193274 0.053947516 0.40561402
000360 fd 92 99 be df 34 b4 3c a8 51 b1 3d ec 68 03 be
       -0.29994956 0.021997867 0.08658153 -0.12832993
000370 56 f2 a9 3e 05 7b 0c bc 67 89 e7 be 46 4a d4 bd
       0.331927 -0.008574252 -0.45222017 -0.10365729
000380 c6 cd 64 be aa 85 4c 3d f7 9d 64 3d da 5c f9 be
       -0.22344121 0.04993216 0.05581471 -0.48703653
000390 b5 84 05 be ad f3 19 3d 16 14 0b be e2 d5 e6 3e
       -0.13038905 0.037585903 -0.13581881 0.45085055
0003a0 a6 f8 1e bd b1 8c 9e 3e 3f 84 d8 3d 1c 8e d8 be
       -0.03881135 0.30966714 0.10572099 -0.4229592
0003b0 4d 22 b4 3d 9f 84 cd 3e 52 46 02 be 46 05 86 be
       0.08795605 0.40140244 -0.12722138 -0.26175898
0003c0 15 c7 f7 3e b3 3f c6 3e ad 10 bc bd ab d9 95 3e
       0.48394075 0.38720474 -0.09182868 0.2926763
0003d0 65 81 62 bd a8 b9 fd be 24 36 0a 3e 6b 65 17 3e
       -0.05529918 -0.49555707 0.13497216 0.14784782
0003e0 7e f0 ef 3c a2 d4 56 3e 2e 67 dc be ae 72 b0 3e
       0.02928948 0.2097955 -0.4304747 0.34462494
0003f0 95 c1 d6 3e 11 f8 7f 3e 82 f6 12 3d f6 45 c3 3e
       0.41944566 0.24996974 0.03587962 0.38139313

weight f4 [1, 256]
000000 93 de 39 bd 3b b9 46 3e bf 99 ce bb 8b e6 30 be
       -0.04537828 0.19406597 -0.006304949 -0.17275445
000010 64 ba 36 bd f2 f9 3b 3d a6 67 63 be 74 6f dd be
       -0.04461135 0.045892663 -0.22207507 -0.43249094
000020 38 2b ea 3c 8e 1b 62 3d c6 17 7f 3d 88 ce 02 3d
       0.028585061 0.05520206 0.06227853 0.031935245
000030 7a 27 fd bb 80 8c 4c be 93 ba 1f 3e 7f e8 0c 3f
       -0.0077256532 -0.19975471 0.15598516 0.5504226
000040 7d 00 32 bf 3f 97 61 bd cd 63 f4 be 2b 37 06 3d
       -0.69531995 -0.05507588 -0.47732392 0.032767456
000050 24 e0 46 bd 86 73 c5 3e 7f 25 ad bc 62 ee ff 3b
       -0.0485536 0.385647 -0.021136044 0.0078104
000060 18 92 31 bd 47 e8 14 3d 4d 40 ce 3c 07 bc 3f bf
       -0.043352216 0.03635433 0.025177145 -0.7489628
000070 b0 f3 09 3b 90 44 85 3a 07 6b 1b 3c 19 1f 5b 3d
       0.002104979 0.0010167528 0.0094859665 0.053496454
000080 fb 23 12 3d a1 e1 a0 bd 9b cd 60 3d 9f 2b 1c bf
       0.035678845 -0.07855535 0.05488358 -0.6100406
000090 1c 2c e8 be 26 8f 11 bb 4d 06 70 bd 9c 99 1a 3b
       -0.45346153 -0.0022210567 -0.05859976 0.0023590093
0000a0 dc 57 2d bf 02 d3 32 3b a4 1e 02 3c 4a 7f 5b ba
       -0.6771219 0.0027286415 0.007941876 -0.00083731546
0000b0 43 2d 78 bd 74 c7 80 bd bc ae d1 3c ed 1d 31 3d
       -0.06059004 -0.06288043 0.025596015 0.04324143
0000c0 30 8a 4e bd 8f 62 99 3c f3 db ad be 8e ea a9 be
       -0.050424755 0.018723754 -0.3395687 -0.33186764
0000d0 4c d0 8f 3d b6 b2 95 3e 01 3f 22 bd ef 5d ce 3e
       0.07022151 0.29237908 -0.039610866 0.4030604
0000e0 33 c6 4f 3e e9 af 87 be 61 fd 53 bd 73 dc bb bc
       0.20290451 -0.26501396 -0.051755313 -0.022932267
0000f0 cf 50 c7 3e bc d8 43 bd c9 49 a8 39 db d5 c0 bd
       0.3892884 -0.047814116 0.0003209843 -0.0941579
000100 7c 1f 2d 3e 5b c1 33 bf 68 de e9 bc 39 9f 7a 3d
       0.16906542 -0.7021691 -0.028548434 0.061187003
000110 72 71 9b be f4 a6 a6 bd 54 d0 f4 bc d3 24 13 3e
       -0.3035999 -0.081373125 -0.029884495 0.14369516
000120 1b 97 81 3d c9 98 3b bd 35 62 80 bd 8e 33 06 bd
       0.06327649 -0.045800004 -0.062687315 -0.03276401
000130 12 a4 b3 be 16 6d 28 3d 4c 5b 9d bb d0 af a4 bc
       -0.35086113 0.041119657 -0.004802143 -0.020103365
000140 90 81 00 bf a7 e3 b5 be 9d 58 a9 bd 55 6d 8f 3e
       -0.50197697 -0.35525247 -0.08268855 0.280131
000150 03 62 b1 3e 11 8e 8d be c3 92 85 bd b1 01 19 bd
       0.3464509 -0.2764745 -0.06522133 -0.03735513
000160 c4 91 8a 3e 81 1a 49 3d d5 d3 1f 3b 2d 79 51 3d
       0.27064335 0.04909754 0.0024387736 0.051140953
000170 1f c7 f7 be c9 44 2f be 5b 05 8e 3c 93 aa a6 3c
       -0.48394105 -0.17116083 0.017336538 0.020345008
000180 64 89 a8 3d c6 fa 96 3b 67 08 41 3d c7 0e 26 3d
       0.0822933 0.0046075312 0.047127154 0.040541437
000190 5e 49 25 3d 26 9e 75 bd b4 d7 ff 3c 27 7a 64 bd
       0.04035317 -0.059965275 0.031230785 -0.055780556
0001a0 25 84 92 bc 94 a6 8b bc e8 95 4a bd 04 7f 41 3c
       -0.017885277 -0.017047204 -0.049459368 0.011810068
0001b0 f1 15 3b 3e 4f db 50 bd be 5e d1 bc 8d 42 c3 3d
       0.18270089 -0.0509904 -0.025557872 0.09534178
0001c0 30 f6 d0 3e 0e 7a ca bc 85 5b 5c 3d 6d 64 43 3c
       0.40812826 -0.024716403 0.053798217 0.011925799
0001d0 77 2d 3f be 27 c6 8a 3c bc 7d 29 bd 8a 09 47 bd
       -0.18669687 0.01694019 -0.041379675 -0.04859308
0001e0 bf 9b cc be ad 49 92 bd 21 38 c8 bd bd 5f 08 3c
       -0.39962575 -0.07142959 -0.09776331 0.008323607
0001f0 82 06 33 bd 41 10 d4 bc 53 11 96 bb 80 7d ce bc
       -0.04370738 -0.025886657 -0.004579702 -0.025206327
000200 03 76 b8 be 5c 11 7c 3d a5 51 38 3e a7 52 79 3d
       -0.36027536 0.061539993 0.17999895 0.06086984
000210 3a 3a 22 bb 21 8b 06 bd 23 d1 1f bd 3c 7c 0d bc
       -0.0024753944 -0.032847527 -0.039017808 -0.008635577
000220 e1 b6 10 bd 56 ac d1 3a 19 68 44 bc 13 24 b3 3c
       -0.035330657 0.0015996795 -0.011987709 0.021867787
000230 8d ad c1 be 60 5d c2 bd df a5 dd ba 75 c5 33 bd
       -0.3782772 -0.09490466 -0.0016910395 -0.04388948
000240 5f e4 fc 3c 25 eb 19 be 60 e1 8f 3e 0f c8 ed bc
       0.030870615 -0.15031107 0.28101635 -0.02902606
000250 01 5c c9 bc 66 11 ee 3d 0b 2a 32 3d 97 67 fb bd
       -0.024580004 0.11624412 0.043497127 -0.122756176
000260 29 65 7e 3c be 36 61 3d e1 31 7d bd c2 dc b8 3b
       0.015527048 0.054983847 -0.061815146 0.0056415508
000270 a0 7e 44 3d 7a 58 99 3e 08 ee 28 bd 61 66 bd 3c
       0.04797232 0.29950315 -0.04124263 0.023120107
000280 98 59 1c bd e0 0e 8a ba 42 00 92 3e 83 29 9e bd
       -0.03817138 -0.0010532998 0.28515822 -0.077227615
000290 86 94 93 bd d2 ed 72 bd b4 f8 13 3e 9d e3 b7 3c
       -0.07206063 -0.059308834 0.14450341 0.022447402
0002a0 38 7c 66 bd 77 03 a9 bc d8 cc 6d 3c 78 06 4b bd
       -0.056270808 -0.020631535 0.014514171 -0.049566716
0002b0 4c c4 f2 3b 1c 84 b0 3d b9 00 6e 3c 74 54 0a bd
       0.0074086543 0.08618948 0.0145265395 -0.033771947
0002c0 92 18 a1 3e 3b 44 b1 3e 73 9e ef 3d 46 64 34 bd
       0.31464058 0.34622368 0.11700144 -0.04404094
0002d0 b5 5e ba bd 52 35 fd 3c a2 f4 71 bd 25 5e 1e 3d
       -0.09100095 0.030909214 -0.05907119 0.038664002
0002e0 13 9a 00 bd c3 d0 06 bd 8d 0b 22 3d 6a db 68 3c
       -0.031396937 -0.032913934 0.039561797 0.014212469
0002f0 8b a8 1b 3d 33 aa 52 3d ae dd 04 3c 69 b6 28 3b
       0.038002532 0.051431846 0.008109493 0.002574349
000300 56 6c cd bb 81 5a ad 3e 8e 33 8e bd b8 41 95 3d
       -0.006269018 0.33858112 -0.06943427 0.072879255
000310 f2 57 c2 bb 22 d5 9b 3d 00 62 0e 3e cb f4 a6 be
       -0.005930894 0.07609011 0.13904572 -0.32608637
000320 41 db a5 bc b0 74 1a 3d 34 45 47 bd b9 ea 2e bd
       -0.02024615 0.037708938 -0.04864998 -0.042704318
000330 30 c8 4e bc 7e 7b aa 3c fc 83 85 3c 76 9b 2c 3d
       -0.012620971 0.020810839 0.016298287 0.042140447
000340 e8 0d 02 3e c2 b6 ba bd 02 48 aa bd 0a f0 00 bd
       0.12700617 -0.091168895 -0.08314516 -0.03147892
000350 aa 52 bf bd c5 d4 9c bc 2b bc 25 bd 4a dd 7d bd
       -0.09341939 -0.019144425 -0.040462654 -0.061978616
000360 af 81 36 be f3 ae ef 3d 9a 91 c6 3c 29 33 fb 3d
       -0.17822908 0.11703291 0.02423935 0.122656174
000370 d6 05 50 3d c7 3a 37 ba 7b bc 78 3c 97 f4 8e bd
       0.050786816 -0.00069896545 0.015181656 -0.069802456
000380 2c 5b ca 3c 00 8d 67 bd 2f 17 a1 3e 21 0a 7c 3c
       0.024701677 -0.056530952 0.31463 0.015383274
000390 ae e1 39 3d ac eb a8 3e 18 d7 dc bc b5 e7 4a 3d
       0.04538124 0.32992303 -0.026958033 0.04953738
0003a0 f4 f6 ad 3e 6e 39 f0 bd 19 ff 63 bb e6 c7 27 3d
       0.33977473 -0.11729704 -0.0034789501 0.040962122
0003b0 db 9d 10 3b 84 09 11 3c bb 50 32 3e 9a 28 24 be
       0.0022066745 0.008852366 0.17413609 -0.16031113
0003c0 c1 2d cc 3c 3e e2 25 3c 01 20 a6 3d f8 2e 67 3d
       0.02492416 0.010124741 0.08111573 0.056441277
0003d0 90 28 a0 3c df 65 cf bb a6 54 3e be 3b 15 66 3c
       0.019550592 -0.0063292827 -0.18586978 0.014043148
0003e0 72 ec 0c 3f 3e e3 99 bd 47 7d 5a 3d 8a 68 8b 3c
       0.55048287 -0.07514046 0.05334213 0.017017622
0003f0 24 47 5c bd 48 33 0f bc 19 0e c5 bb 73 70 1c bf
       -0.053778782 -0.008740254 -0.0060136435 -0.61109084
