models/2025-09-17_simple_mlp.pth (torch, 497513 bytes, 3 tensors)

weight f4 [256, 480]
0.019663705 0.041276917 -0.031039193 0.031116635 -0.045484614 0.045917846 -0.017605197 0.010515994
0.025343487 -0.028307326 0.019486936 0.0061194925 0.00038283778 0.02893021 0.030746045 -0.021683605
0.023944644 0.013592948 -0.039048586 0.0116726495 -0.04835015 0.019023722 -0.018421141 0.024225475
-0.046315525 -0.022458045 -0.030855786 -0.035830412 -0.020216396 0.007566265 0.035029806 -0.041401405
0.024838144 0.01126927 -0.03385783 0.027558234 -0.018923063 0.072128356 0.00077799824 -0.016270421
0.0033675143 -0.009599123 0.0017394177 0.028238062 -0.0002979582 0.016209194 0.028646562 0.009033504
0.012402687 -0.025273938 -0.06441665 -0.021252528 -0.0623566 0.069818795 0.018715862 0.010593838
0.004020784 0.0017367139 0.016638339 -0.03714263 -0.025282431 0.015938526 0.01785863 -0.02328091
0.0017417959 -0.0045116 0.017203782 -0.038868353 -0.05634435 0.003021786 0.042102434 0.010426114
0.030004174 -0.04122336 -0.06652939 -0.04983721 -0.058811978 0.019196874 0.018216213 0.03463002
-0.04060781 -0.028902173 0.0002118039 -0.02220527 -0.002892784 0.020775352 0.018438345 -0.045059998
-0.036127903 0.0130815 -0.011049251 -0.02226863 -0.0024197802 0.04438021 -0.032656822 -0.03128072
0.028909134 -0.012100748 -0.036930647 -0.03938221 -0.056238636 0.031534243 -0.00678902 -0.042045336
-0.013628768 -0.036294613 -0.06220463 -0.011307165 -0.073747925 -0.004146659 0.042812992 -0.009495526
0.0015340336 -0.04503168 -0.05214682 -0.015081722 -0.026472645 -0.021622695 -0.007155664 -0.03794453
-0.012223443 -0.01949322 -0.025207333 -0.027278213 -0.06600686 -0.03106797 -0.0050671576 -0.046840318
0.02590259 -0.016409587 0.017823635 0.012552915 -0.07528477 0.05072326 -0.0068233376 -0.027639536
-0.051583152 -0.050296467 -0.008945482 -0.006588193 -0.019960193 -0.033644754 0.023080776 -0.04279272
-0.021147685 0.0061456845 0.0020203213 0.040071376 0.005365936 -0.025023783 0.021189088 -0.026168702
-0.014138133 -0.041753132 0.02338155 -0.03454664 -0.008487991 0.033293948 0.016224997 -0.028715875
0.034803245 0.0032085131 -0.011223645 -0.03931223 -0.014591005 0.029595798 -0.011982203 0.04015945
0.003727008 -0.030534277 -0.040396668 -0.0060195983 -0.009650189 0.026915196 -0.019545678 -0.0202251
-0.044192273 0.011044363 0.014418659 -0.04686089 -0.028030688 0.053090338 0.0009752051 -0.024891814
0.015556758 0.025448097 -0.003460518 -0.008366542 -0.049491856 0.028978473 -0.008090292 -0.019440709
0.020190608 0.03522018 -0.026487576 -0.012554297 -0.034764566 0.0243602 0.006797888 0.007523082
-0.052045923 -0.017244127 0.014469461 0.013972612 -0.03719451 0.0018752092 -0.023429405 -0.045529522
-0.024965078 0.0075660283 0.0051624905 0.015104131 -0.075150765 0.00039179364 -0.007839378 0.040982246
-0.0036201037 -0.015477018 -0.00525485 -0.01746396 -0.06371176 0.06524748 -0.014654243 -0.017733749
-0.054473326 0.030070862 0.013223906 0.014273132 -0.066715084 -0.009920421 -0.0315585 0.027633525
0.010558963 0.041249797 0.002215333 0.014871187 -0.035819773 0.0014714511 -0.027014568 -0.04992534
0.0093246745 -0.019932752 -0.027371056 -0.020914441 -0.040695515 -0.007583709 -0.03326271 0.0038920979
-0.022462571 0.029929163 -0.03127439 -0.02786107 -0.03972544 0.007184524 -0.012932048 -0.05513071
00000000: c715 a13c fc11 293d e845 febc 50e8 fe3c
00000010: 134e 3abd 5a14 3c3d c638 90bc 474b 2c3c
00000020: 259d cf3c c4e4 e7bc 11a3 9f3c 0686 c83b
00000030: 9eb7 c839 0cff ec3c 21df fb3c d1a1 b1bc
00000040: 8f27 c43c f5b4 5e3c 69f1 1fbd a43e 3f3c
00000050: cf0a 46bd a3d7 9b3c efe7 96bc 8174 c63c
00000060: 59b5 3dbd eff9 b7bc 46c5 fcbc e9c2 12bd
00000070: db9c a5bc 6eee f73b 6a7b 0f3d 8594 29bd
00000080: 5d79 cb3c bfa2 383c 82ae 0abd cec1 e13c
00000090: 8a04 9bbc 08b8 933d 94f2 4b3a 8c49 85bc
000000a0: 84b1 5c3b a445 1dbc 2cfd e33a 8253 e73c
000000b0: 4637 9cb9 25c9 843c 32ac ea3c 4301 143c
000000c0: a434 4b3c 4a0b cfbc e0ec 83bd c819 aebc
000000d0: a269 7fbd 28fd 8e3d 0252 993c c791 2d3c
000000e0: c8c0 833b 73a2 e33a 204d 883c df22 18bd
000000f0: 1a1d cfbc 8391 823c 434c 923c 9bb7 bebc
00000100: f94c e43a 0bd6 93bb f2ee 8c3c 6c34 1fbd
00000110: 55c9 66bd 2809 463b 9a73 2c3d 4bd2 2a3c
00000120: 50cb f53c d3d9 28bd 9040 88bd 1a22 4cbd
00000130: d4e4 70bd c342 9d3c 2b3a 953c 35d8 0d3d
00000140: 6054 26bd 40c4 ecbc ad17 5e39 d4e7 b5bc
00000150: dd94 3dbb 1231 aa3c 030c 973c d590 38bd
00000160: dafa 13bd ca53 563c eb07 35bc b46c b6bc
00000170: 2d95 1ebb 06c8 353d 29c3 05bd 3620 00bd
00000180: d9d2 ec3c 3742 46bc 9744 17bd 3d4f 21bd
00000190: 7c5a 66bd 0d2a 013d 6d76 debb bb37 2cbd
000001a0: 324b 5fbc a9a9 14bd 48ca 7ebd b041 39bc
000001b0: 2709 97bd b2e0 87bb ad5c 2f3d 1f93 1bbc
000001c0: a011 c93a 2473 38bd e797 55bd 5419 77bc
000001d0: 29dd d8bc 1422 b1bc 0f7a eabb b96b 1bbd
000001e0: d644 48bc 3fb0 9fbc 9c7f cebc 8f76 dfbc
000001f0: 9b2e 87bd 4182 febc 660a a6bb a2db 3fbd
00000200: ab31 d43c 666d 86bc df02 923c beaa 4d3c
00000210: e72e 9abd 31c3 4f3d 4e96 dfbb 4f6c e2bc
00000220: db48 53bd ab03 4ebd 1290 12bc c5e1 d7bb
00000230: 8f83 a3bc 15cf 09bd e513 bd3c 6b47 2fbd
00000240: e93d adbc bd61 c93b 5e67 043b e221 243d
00000250: bcd4 af3b adfe ccbc bd94 ad3c bf5f d6bc
00000260: a1a3 67bc 5505 2bbd aa8a bf3c c780 0dbd
00000270: 3711 0bbc 3c5f 083d 49ea 843c 8e3d ebbc
00000280: d98d 0e3d eb45 523b 61e3 37bc dc05 21bd
00000290: 1c0f 6fbc e372 f23c 0151 44bc 3c7e 243d
000002a0: d140 743b 0523 fabc fa76 25bd 0d40 c5bb
000002b0: d41b 1ebc 427d dc3c 421e a0bc 1caf a5bc
000002c0: f502 35bd 6af3 343c 3d3c 6c3c 34f1 3fbd
000002d0: 9da0 e5bc 4175 593d e8a4 7f3a ebe9 cbbc
000002e0: c6e1 7e3c 8778 d03c dcc9 62bb d213 09bc
000002f0: f9b7 4abd 4364 ed3c 258d 04bc 1f42 9fbc
00000300: c666 a53c 0943 103d 79fc d8bc 8ab0 4dbc
00000310: 4a65 0ebd 0b8f c73c d1c0 de3b 3084 f63b
00000320: 1b2e 55bd 8e43 8dbc 5111 6d3c 62ed 643c
00000330: 4559 18bd 94c9 f53a 06ef bfbc 2a7d 3abd
00000340: 9083 ccbc 72ec f73b 1c2a a93b 5177 773c
00000350: a5e8 99bd a769 cd39 bc70 00bc 00dd 273d
00000360: 433f 6dbb 5293 7dbc e030 acbb 9410 8fbc
00000370: 507b 82bd 79a0 853d 5a18 70bc 5e46 91bc
00000380: 6c1f 5fbd 2b57 f63c 15a9 583c dbd9 693c
00000390: eba1 88bd 4389 22bc 7c43 01bd b45f e23c
000003a0: 80ff 2c3c 8cf5 283d 1f2f 113b 47a6 733c
000003b0: c1b7 12bd b5dd c03a a84d ddbc 837e 4cbd
000003c0: 85c6 183c 034a a3bc 4439 e0bc c354 abbc
000003d0: 57b0 26bd c380 f8bb 7b3e 08bd 9112 7f3b
000003e0: 6d03 b8bc 012e f53c 9319 00bd e63c e4bc
000003f0: 25b7 22bd 286c eb3b f1e0 53bc bdd0 61bd

bias f4 [256]
0.009624859 0.0072683315 0.03716293 -0.04431739 -0.043585297 0.0053340374 -0.051848155 0.0033408476
-0.0006739087 0.029656503 0.035983235 -0.041795865 -0.011417605 0.03612797 -0.011158443 0.015721837
-0.0040285806 0.0070261024 0.005060665 0.00892294 -0.03129888 -0.030858276 -0.041071896 0.00016381741
-0.048435707 0.005881316 -0.0014469349 -0.031986393 -0.022707043 -0.004291014 -0.04041418 0.026921004
-0.038220074 -0.04519819 0.017409133 0.008006241 -0.04982599 0.01134506 0.017632343 -0.04951576
0.011528562 0.0061663464 -0.039197553 -0.017153762 -0.030810503 0.020943597 -0.020422094 -0.01000637
-0.034763586 -0.016577253 0.03376929 -0.008166972 0.009085823 -0.00088833756 -0.0437774 0.056319784
0.033996683 -0.021117516 0.01798833 -0.013086583 0.015635688 -0.0040021315 0.014829955 -0.031078301
-0.02640952 -0.021483352 0.00078970665 0.025666703 0.046618726 -0.018624777 -0.054221362 -0.044590324
0.028893618 0.028527835 -0.04474911 0.002316832 -0.012010868 -0.03924374 0.020107822 0.046138883
-0.043065794 0.024389688 0.018180165 -0.043928906 0.0140645495 -0.005412521 -0.0050478773 -0.03328157
-0.0031332825 0.013781761 0.013064674 0.015665522 -0.042237088 0.031124093 -0.01862159 -0.032368638
-0.040668868 -0.004944849 0.0006005635 -0.009077301 -0.04145926 -0.018442359 0.032623164 0.013219258
0.044705823 -0.055212542 -0.01929454 -0.0003416711 -0.02805013 0.03964113 0.031503215 0.0008729173
0.01858392 -0.05130009 -0.010183509 0.040674567 0.014192681 0.025125286 0.0056630727 -0.0012635317
0.005015954 0.026399128 -0.024837177 -0.011789806 0.031206975 -0.03040118 -0.01380854 0.01493812
-0.029793901 0.032899667 -0.038730994 -0.033286553 0.028944178 -0.027442593 -0.029958671 -0.034068152
0.030430445 -0.011965618 -0.015856579 0.036842756 -0.029455334 -0.025610158 0.040637605 0.01021338
0.00079958217 0.038374957 -0.021460611 0.0412617 0.014572084 -0.0140292235 0.0046927277 -0.026978193
0.01737355 -0.021937948 0.01578533 -0.043246925 0.022449283 -0.043684684 -0.009390888 0.00816407
0.032446824 0.03225875 -0.008848069 0.039977748 -0.0057015345 0.018380076 -0.041829314 0.022029094
-0.008821284 -0.005484719 0.01383059 -0.025662778 0.03650311 -0.016714005 -0.034983266 0.011038164
-0.02076683 0.01833925 -0.020920029 -0.00788269 -0.035344593 0.027471533 -0.031677417 -0.019272298
0.036498908 -0.034488495 -0.06635249 -0.011888294 0.008365143 0.02820669 0.034005813 0.0126177715
0.026191782 -0.041916866 -0.0034920042 -0.021980494 0.00836189 -0.025023159 -0.0122993095 0.0048226137
-0.035286833 0.018454442 -0.019391308 -0.016382484 0.027185803 0.020996587 -0.030178769 0.0034232347
8.20867e-05 -0.0015744658 0.013475257 0.015258322 -0.016012808 -0.04093572 -0.055551518 -0.008325407
-0.0036694345 -0.028802989 -0.01916982 -0.03908325 0.03797257 0.0055599273 0.0004481253 0.035027973
-0.03231741 -0.00943155 0.024090353 0.007781391 0.014709338 0.0077875354 -0.015210347 -0.02495384
-0.0017364878 -0.03612827 0.032139245 0.018168557 0.03656544 -0.04854964 -0.0042640897 -0.03103771
-0.040358264 -0.028957695 0.046214808 -0.03253622 -0.051962975 0.03110171 0.027649906 -0.0344051
0.022864027 0.0025055408 0.0044831485 -0.026924588 -0.047141835 0.03396708 0.0278496 0.032821193
00000000: 96b1 1d3c 2f2b ee3b 2838 183d 2786 35bd
00000010: 7f86 32bd 26c9 ae3b bb5e 54bd 1ff2 5a3b
00000020: 3fa9 30ba 32f2 f23c 2863 133d 2432 2bbd
00000030: e810 3bbc ecfa 133d e7d1 36bc 15cb 803c
00000040: 2f02 84bb 383b e63b efd3 a53b 8631 123c
00000050: 4133 00bd 7fca fcbc 013b 28bd 67c6 2b39
00000060: 8564 46bd 0eb8 c03b 14a7 bdba 2a04 03bd
00000070: 1f04 babc a29b 8cbb 5789 25bd 7089 dc3c
00000080: a78c 1cbd bd21 39bd 999d 8e3c 9c2c 033c
00000090: 5616 4cbd a1e0 393c b471 903c 0ad1 4abd
000000a0: 4be2 3c3c 100f ca3b 9d8d 20bd 0c86 8cbc
000000b0: 4f66 fcbc e891 ab3c 3c4c a7bc c2f1 23bc
000000c0: 4364 0ebd 05cd 87bc ab51 0a3d c3ce 05bc
000000d0: b4dc 143c 53df 68ba ee4f 33bd 93af 663d
000000e0: 1b40 0b3d a4fe acbc 435c 933c 1c69 56bc
000000f0: 6a16 803c 5024 83bb 57f9 723c ec97 febc
00000100: c758 d8bc dbfd afbc 5104 4f3a fa42 d23c
00000110: 47f3 3e3d fd92 98bc 3817 5ebd 58a4 36bd
00000120: 4fb2 ec3c 35b3 e93c d84a 37bd fed5 173b
00000130: 3bc9 44bc 0bbe 20bd 29b9 a43c 20fc 3c3d
00000140: c265 30bd e2cc c73c 92ee 943c ccee 33bd
00000150: ff6e 663c 845b b1bb aa68 a5bb 4152 08bd
00000160: c257 4dbb e5cc 613c 370d 563c fb54 803c
00000170: cc00 2dbd f4f7 fe3c 4e8c 98bc fa94 04bd
00000180: 6694 26bd 6608 a2bb 226f 1d3a f6b8 14bc
00000190: 2fd1 29bd 6e14 97bc de9f 053d 9695 583c
000001a0: 741d 373d 8c26 62bd 950f 9ebc 5222 b3b9
000001b0: 63c9 e5bc bd5e 223d 8409 013d 7dd4 643a
000001c0: 4e3d 983c 0b20 52bd bcd8 26bc 609a 263d
000001d0: 6b88 683c 8bd3 cd3c 4c91 b93b 179d a5ba
000001e0: df5c a43b fc42 d83c 5677 cbbc 082a 41bc
000001f0: c5a5 ff3c e50b f9bc 373d 62bc 04bf 743c
00000200: 5712 f4bc cdc1 063d 64a4 1ebd 7b57 08bd
00000210: 571c ed3c 4acf e0bc e36b f5bc 0c8b 0bbd
00000220: 4549 f93c 700b 44bc a8e5 81bc 6ee8 163d
00000230: 504c f1bc 65cc d1bc 9e73 263d 0556 273c
00000240: 0d9b 513a 0f2f 1d3d 2ace afbc 0702 293d
00000250: c0bf 6e3c d4da 65bc 74c5 993b 5f01 ddbc
00000260: fa52 8e3c 36b7 b3bc 3d50 813c b023 31bd
00000270: 8fe7 b73c b6ee 32bd 3ddc 19bc 97c2 053c
00000280: f6e6 043d c021 043d 7ef7 10bc b5bf 233d
00000290: f0d3 babb d091 963c 3755 2bbd 5c76 b43c
000002a0: 2687 10bc 28b9 b3bb b399 623c bf3a d2bc
000002b0: 4984 153d cfeb 88bc 9d4a 0fbd 6ad9 343c
000002c0: 331f aabc 323c 963c 7b60 abbc 6626 01bc
000002d0: 7ec5 10bd fb0b e13c 2ec0 01bd f0e0 9dbc
000002e0: e17f 153d cf43 0dbd d0e3 87bd 1ec7 42bc
000002f0: f40d 093c b711 e73c ae49 0b3d c5ba 4e3c
00000300: 2690 d63c 05b1 2bbd 1cda 64bb 7010 b4bc
00000310: 4f00 093c 5efd ccbc 0b83 49bc 0407 9e3b
00000320: ed88 10bd c52d 973c 85da 9ebc 8f34 86bc
00000330: c3b4 de3c 0901 ac3c 7739 f7bc 5958 603b
00000340: f625 ac38 4e5e ceba 53c7 5c3c 0afe 793c
00000350: 4b2d 83bc 37ac 27bd fd89 63bd 4a67 08bc
00000360: e57a 70bb 3ff4 ebbc 070a 9dbc c215 20bd
00000370: 2089 1b3d 0d30 b63b 5cf2 ea39 7e79 0f3d
00000380: 435f 04bd ca86 1abc 2259 c53c 0afb fe3b
00000390: 6fff 703c 952e ff3b d234 79bc ff6b ccbc
000003a0: dd9a e3ba 3dfb 13bd 71a4 033d 3ad6 943c
000003b0: a5c5 153d fddb 46bd c7b9 8bbb cc42 febc
000003c0: b54e 25bd b038 edbc bd4b 3d3d b344 05bd
000003d0: 21d7 54bd 03c9 fe3c 0e82 e23c 5dec 0cbd
000003e0: 574d bb3c 0034 243b 60e7 923b f490 dcbc
000003f0: cc17 41bd 1121 0b3d d824 e43c 846f 063d

weight f4 [1, 256]
-0.09952394 -0.05502926 0.036394037 -0.06051548 -0.03339041 -0.026944991 -0.08456256 0.050202444
0.043900616 -0.08134772 0.0495178 0.011602223 -0.05503574 0.006181316 -0.05364094 -0.003490852
-0.056875333 0.010179395 -0.018995184 0.013660902 0.021912754 -0.018769598 -0.10182105 -0.06345203
-0.10216688 -0.00680618 0.012595584 -0.03687067 -0.050250344 -0.06504126 -0.058711555 0.013202639
-0.057581395 -0.024622994 0.037110753 0.09032364 -0.055624466 -0.030555213 -0.041410685 -0.088675
-0.04192742 -0.014060351 -0.08275536 0.046477422 -0.10264464 0.01202719 -0.025307754 -0.00225872
-0.07186103 0.05234721 0.016298344 -0.058159787 0.03383104 0.02807056 -0.09246702 -0.062323235
0.019119404 -0.0089985 -0.02843544 -0.043915432 -0.08817763 0.018940745 -0.051601637 -0.0024510475
-0.029333383 -0.06933629 0.009145513 -0.015486063 0.032898773 -0.01210752 -0.06810696 0.041738547
-0.071164824 -0.07367876 -0.0017026378 -0.052164286 0.07760704 -0.009677674 -0.059290823 -0.019437075
-0.0027298878 -0.06019339 -0.075914554 -0.05393848 -0.02369107 0.032169107 -0.04913375 -0.08161592
-0.08781045 0.026644925 -0.06548752 -0.10366368 -0.07544129 0.03653448 -0.07248459 -0.07942232
-0.029746298 -0.049096804 -0.03900072 -0.06700633 -0.015834035 -0.05374699 0.017960018 0.0113014355
0.044296056 -0.098226584 0.0064529707 0.008448498 -0.015343204 -0.025824016 -0.021177411 -0.002887688
-0.01592377 -0.107206956 -0.071169786 0.024370993 -0.016187577 -0.03287915 -0.033570003 -0.0043878956
-0.009800791 -0.05361087 -0.013670091 -0.032776695 -0.0074676154 -0.0025623548 0.019783538 -0.015460804
-0.10541424 -0.032892343 0.017919105 -0.054973867 0.009292371 0.04564022 -0.080310956 -0.04412165
0.024942681 -0.046361316 0.039161097 0.020468457 0.033437736 0.006222924 -0.025893036 0.012575578
-0.029648436 -0.056124687 -0.07786449 0.013414525 -0.090664245 -0.068552464 -0.0066874614 0.011231088
0.026266888 -0.023597417 0.0006315689 -0.08383488 -0.004337978 0.06787072 0.0155270565 -0.05820301
-0.051930174 0.019386075 -0.029475242 0.024812153 -0.046136916 -0.013305645 -0.06654417 -0.020242684
-0.06617542 -0.070736535 0.03895257 -0.0040674293 -0.035675086 -0.013505803 0.028819807 0.009557247
-0.07513487 -0.0003205181 -0.08554218 0.02407242 0.029542845 0.019087376 -0.009679334 -0.048497953
-0.00047664178 -0.09629802 -0.049099006 -0.008253714 0.03953508 0.01232728 0.010714055 -0.013814268
-0.039425347 0.037327405 0.10273523 -0.03009578 0.035433006 0.03242927 -0.06082486 -0.020907398
-0.053051136 0.014644114 -0.03946372 -0.0699298 -0.033028677 -0.05486466 0.05156397 -0.011041455
0.010107752 0.021745913 -0.019344643 -0.061360467 -0.058654312 0.026878906 -0.076896854 -0.038818344
-0.08428787 0.012195683 -0.030870443 -0.011981505 0.05556192 -0.03852416 0.024760235 -0.10373761
-0.057112597 -0.06730594 0.030120792 0.012786917 0.036145758 -0.021487687 -0.001147719 -0.027429443
-0.07990626 -0.07809085 -0.042755205 -0.020982454 0.01125801 -0.043380518 -0.06304895 -0.0029226632
-0.03931667 -0.048259825 0.041268364 -0.04259299 -0.090703085 -0.10040136 0.0017470921 -0.083770946
-0.03872546 -0.05510657 0.011230641 0.0505448 -0.023239398 -0.099428445 0.010295815 0.037906703
00000000: 35d3 cbbd 5d66 61bd ea11 153d 14df 77bd
00000010: 62c4 08bd bebb dcbc 232f adbd 14a1 4d3d
00000020: 22d1 333d a299 a6bd 2dd3 4a3d 4017 3e3c
00000030: 286d 61bd a38c ca3b 9ab6 5bbd c7c6 64bb
00000040: 1cf6 68bd 7ac7 263c ca9b 9bbc fad1 5f3c
00000050: 6082 b33c b3c2 99bc 8e87 d0bd 23f3 81bd
00000060: df3c d1bd 6006 dfbb b55d 4e3c b305 17bd
00000070: 4ed3 4dbd 5a34 85bd 877b 70bd e24f 583c
00000080: 78da 6bbd 29b6 c9bc 7201 183d 9afb b83d
00000090: 7bd6 63bd ed4e fabc 409e 29bd 3d9b b5bd
000000a0: 16bc 2bbd 635d 66bc a47b a9bd 1c5f 3e3d
000000b0: 5a37 d2bd b10d 453c 3552 cfbc 0907 14bb
000000c0: e02b 93bd 076a 563d 1b84 853c f538 6ebd
000000d0: 6b92 0a3d 3bf4 e53c 595f bdbd a646 7fbd
000000e0: 4ca0 9c3c 726e 13bc 71f1 e8bc abe0 33bd
000000f0: 7996 b4bd 9f29 9b3c 3d5c 53bd c1a1 20bb
00000100: 904c f0bc 2f00 8ebd 10d7 153c 42b9 7dbc
00000110: ddc0 063d 9f5e 46bc a97b 8bbd 0af6 2a3d
00000120: ddbe 91bd e4e4 96bd 0b2b dfba 38aa 55bd
00000130: 71f0 9e3d 1b8f 1ebc efda 72bd 803a 9fbc
00000140: ebe7 32bb 588d 76bd 1779 9bbd 98ee 5cbd
00000150: c613 c2bc c1c3 033d 7940 49bd 3f26 a7bd
00000160: f7d5 b3bd 7546 da3c 521e 86bd a04d d4bd
00000170: f780 9abd 2ea5 153d cd72 94bd 2ba8 a2bd
00000180: 82ae f3bc bb19 49bd 38bf 1fbd 9d3a 89bd
00000190: 61b6 81bc ce25 5cbd e320 933c a829 393c
000001a0: c86f 353d 052b c9bd 7173 d33b 926b 0a3c
000001b0: 1062 7bbc e38c d3bc 407c adbc 5e3f 3dbb
000001c0: 9172 82bc 528f dbbd 77c1 91bd ada5 c73c
000001d0: cf9b 84bc 4aac 06bd b380 09bd 56c8 8fbb
000001e0: 7f93 20bc 1297 5bbd 84f8 5fbc db40 06bd
000001f0: e6b2 f4bb 2eed 27bb 1611 a23c 504f 7dbc
00000200: 6ce3 d7bd 1fba 06bd 16cb 923c 472c 61bd
00000210: 073f 183c 3df1 3a3d 127a a4bd e7b8 34bd
00000220: 9854 cc3c 5de5 3dbd 6367 203d 77ad a73c
00000230: 02f6 083d ace9 cb3b a21d d4bc cc09 4e3c
00000240: 47e1 f2bc 00e3 65bd 6b77 9fbd 99c8 5b3c
00000250: 2dae b9bd 3c65 8cbd 7e22 dbbb 9902 383c
00000260: a82d d73c 5f4f c1bc df8f 253a 9fb1 abbd
00000270: 9925 8ebb ceff 8a3d 3265 7e3c 4866 6ebd
00000280: bcb4 54bd 8ccf 9e3c 1076 f1bc db42 cb3c
00000290: 10fa 3cbd ecff 59bc 4f48 88bd fcd3 a5bc
000002a0: fb86 87bd 51de 90bd bb8c 1f3d 1248 85bb
000002b0: 0a20 12bd 7247 5dbc 8417 ec3c 0096 1c3c
000002c0: 50e0 99bd 360b a8b9 bd30 afbd 8633 c53c
000002d0: d603 f23c 215d 9c3c 1296 1ebc caa5 46bd
000002e0: c7e5 f9b9 e537 c5bd 0a1c 49bd 963a 07bc
000002f0: 89ef 213d 5cf8 493c 018a 2f3c 3d55 62bc
00000300: 797c 21bd 9fe4 183d d966 d23d 6d8b f6bc
00000310: 3322 113d 8ed4 043d 7d23 79bd fe45 abbc
00000320: 264c 59bd deed 6f3c b6a4 21bd 5b37 8fbd
00000330: 1449 07bd c4b9 60bd be34 533d 38e7 34bc
00000340: fc9a 253c 7c24 b23c a878 9ebc 1d55 7bbd
00000350: 813f 70bd 2731 dc3c 197c 9dbd fcff 1ebd
00000360: 1e9f acbd 67d0 473c 03e4 fcbc 134e 44bc
00000370: e594 633d 82cb 1dbd fad5 ca3c 6274 d4bd
00000380: e6ee 69bd b2d7 89bd e1bf f63c 3880 513c
00000390: 930d 143d f206 b0bc 0f6f 96ba b6b3 e0bc
000003a0: e5a5 a3bd 18ee 9fbd 1520 2fbd 65e3 abbc
000003b0: 8473 383c c5af 31bd cf1f 81bd 278a 3fbb
000003c0: 840a 21bd 18ac 45bd 0409 293d fd75 2ebd
000003d0: 8ac2 b9bd 3a9f cdbd affe e43a 1a90 abbd
000003e0: 979e 1ebd 6db7 61bd b900 383c 1008 4f3d
000003f0: 8d60 bebc 24a1 cbbd c7af 283c 0f44 1b3d
