models/2025-09-17_backprophet_cnn.pth (torch, 10331 bytes, 3 tensors)

weight f4 [256, 1, 2, 2]
00000000: 857d c03e 1f40 d13e 7cd2 fcbd d5ee e73e
00000010: 2d86 4dbe 8856 773e a1dd abbe 11ff db3e
00000020: ff50 d43e fcf3 bcbe a8fe d03e 672f bf3d
00000030: aed3 cf3e 6586 35be 7871 7d3e 8109 a2be
00000040: a1fc c13e 19fa 893d 196a 74be c351 f83d
00000050: 713d 67be ae47 6fbd 9bc5 4abe 6682 a03e
00000060: ad22 06bf 0924 87be 7c39 83be 2833 b8be
00000070: 42e1 133e 1480 32bf 3365 073f a788 24bf
00000080: 453f db3e 42d7 d03d 2b8d edbd 3701 ab3e
00000090: b9a7 4c3e a791 fc3e 7066 bb3d e39d 6fbe
000000a0: 1f45 0a3e af58 10be ddd0 583e f34c e53e
000000b0: e809 953e abb8 5dbe d0d5 943e 5b71 bb3d
000000c0: 8653 863e 6363 a9be d33f f9be e40a 61be
000000d0: fdd8 a4be 0666 033f 1bc8 7f3e 030b a23e
000000e0: c0fc 443e db5b 6bbe 875a d73e bb99 13bf
000000f0: d067 9b3e da68 37bf 3602 d83e 18f1 07bf
00000100: cb37 933e ff1b 97be 0ff5 183f 14aa e9be
00000110: c509 9bbe 3e01 9bbe 4cc1 e33e b89e 253e
00000120: 479f 0f3f 0f12 b7bd f5d6 05bf 304b 8f3c
00000130: 2439 a5be be9e 503e da6c 483e 2262 d53e
00000140: cd63 84be 77e5 aebe a100 b03e 4e11 59be
00000150: a44b 033f 176c 15bf 1737 023f 189b 54bf
00000160: fe33 87be 4909 423e a62e c83d 534d b9bd
00000170: 70a5 993e 9ae5 ae3e f34b b7be 0d9a 87be
00000180: 4fd4 d83e 0bf7 0fbe 950c 65be ce26 e3be
00000190: 5736 8fbe aeae 063e ff30 73bd 7d6f b6be
000001a0: 5ccc 233c 3719 a4be 8dfd d5be 76b9 82be
000001b0: 903d a5be acff bebe ac40 2d3f 27a6 9d3c
000001c0: efe7 353e e6b3 e2be d411 9cbe 414b 12be
000001d0: 8426 cb3d c880 d6be 0f18 47be 9a80 8ebe
000001e0: f1b8 ad3b 1d66 38be 4a55 fcbc bd73 aabe
000001f0: 9c43 acbe 06e5 91be e259 28be 7f99 c6be
00000200: c719 d63e b426 3ebe 5d6f db3e c250 723d
00000210: 5f51 f0be 4ad6 ec3e 1af1 e0bd bd93 0abe
00000220: 615d d1be 315f fbbe 1e48 0f3e d4ac d3bd
00000230: 3a25 cd3e 72c7 34bf 7eec 123f a4cc 2dbf
00000240: 0ae4 763e ac59 633e 0364 143f 14c3 063f
00000250: 37a5 e93e 9166 cebe 0829 023e 5054 61be
00000260: fda3 80bd e222 cabe 3cd6 e53e a152 c5be
00000270: 50d9 863e edfe 2f3e a96f 223e 4660 8cbe
00000280: 86ca 213f 5ad9 dabd 20b2 443e 88e7 16bf
00000290: 9e27 523e c72c a3bd 2a56 6fbe a780 d93e
000002a0: 6944 043e 8594 84be 9506 71be 83ab cabb
000002b0: 34b3 903e fba3 febd 573d 90be 56cb 2bbe
000002c0: 76bd c1be 85bf 2c3e 96b0 c33e a01b fabe
000002d0: 778c e33d c2ad 813e bf67 af3d 3d79 3bbe
000002e0: 9449 863e 9c33 873e b5ca 403e cb41 b1bd
000002f0: 2fca 03be 1d40 6a3d 2351 adbd c1c9 14be
00000300: 5924 a03e 4b81 d83e a8cb 68bd 1fc1 f4bd
00000310: 3a56 093c 85aa ebbc a767 f83d 7297 103e
00000320: 8f41 8bbe 0b55 78bd c46d 1b3f 52bb b93e
00000330: 7fb6 a3be 6ef8 90be ebc8 1bbf 834a e7be
00000340: 1a94 8cbe 5ff2 6f3e 7348 473e e955 993e
00000350: d799 08bf b88e e7bd 22c9 20be e532 253f
00000360: d25e 8e3d d978 07be 73f1 503e f1e3 45be
00000370: 71b4 b0be ad9e 173f b8ae 82be 92da 0c3e
00000380: 15cb 1dbf 1cd0 fb3e 8d54 523e f44d ac3e
00000390: 2916 53bd 69b4 2cbf 8ce8 a0be 6ef2 3f3f
000003a0: de02 8f3e 4540 003f 6e8c 9a3e f1bc 553e
000003b0: ad75 b5bb 9704 c3be 7da9 dbbe 13c7 efbe
000003c0: 42e7 ec3e ffc6 2fbf 44db 533e a231 37bf
000003d0: 3e25 8cbd 5593 aabe 1d0a a1be c25a 3a3e
000003e0: ec35 16be 9804 9f3e d74c 22be 0ad1 babe
000003f0: 5bad 5cbe 0f42 bebe fe02 90be 00dd 1dbf
0.37595764 0.40869233 -0.12344834 0.45299402 -0.20070715 0.24154103 -0.33567527 0.42968038
0.41468045 -0.36904895 0.40819287 0.09335213 0.40591186 -0.17727049 0.24750316 -0.31647876
0.37888053 0.067371555 -0.23868598 0.1212497 -0.22582032 -0.05841797 -0.19801943 0.31349486
-0.5239666 -0.2639468 -0.25629795 -0.3597653 0.14441398 -0.6972668 0.5288879 -0.64271015
0.42821708 0.10197307 -0.11599191 0.33399364 0.19985856 0.49329874 0.09150398 -0.23400073
0.1350293 -0.1409633 0.21173425 0.4478527 0.2910912 -0.21652476 0.29069376 0.0915248
0.26235598 -0.3308364 -0.48681507 -0.2197681 -0.321968 0.5132755 0.24978678 0.31649026
0.19237041 -0.22984259 0.42061254 -0.5765645 0.3035264 -0.71644366 0.42189187 -0.53102255
0.28753504 -0.29513547 0.5974893 -0.45637572 -0.3028089 -0.30274385 0.4448341 0.16173828
0.5610241 -0.08938991 -0.52281123 0.017491907 -0.32270157 0.20373055 0.19572774 0.41676432
-0.25857392 -0.34159443 0.3437548 -0.21198007 0.51287293 -0.58368057 0.5086531 -0.83049154
-0.26406854 0.18948855 0.097745225 -0.090479515 0.3000903 0.34159547 -0.35800132 -0.2648472
0.4234948 -0.14059083 -0.22368081 -0.44365543 -0.27971146 0.13152573 -0.0593729 -0.35631934
0.009997454 -0.32050487 -0.41795006 -0.2553212 -0.3227353 -0.37304437 0.67676806 0.019244267
0.17764257 -0.44277877 -0.30482352 -0.1428652 0.09919456 -0.41895127 -0.19442771 -0.2783249
0.0053015877 -0.18007703 -0.030802388 -0.33291426 -0.33645332 -0.28495044 -0.16440538 -0.38788983
0.41816542 -0.18569452 0.428584 0.059159048 -0.4693708 0.4625724 -0.109834865 -0.1353292
-0.40891555 -0.49096063 0.13992354 -0.10335699 0.40067464 -0.7061683 0.5739211 -0.6789038
0.24110427 0.22202176 0.57965106 0.52641416 0.4563386 -0.40312627 0.12710965 -0.22004819
-0.06281278 -0.39479738 0.4489001 -0.38539603 0.2633767 0.1718709 0.15862907 -0.274172
0.6319965 -0.10685988 0.19208574 -0.5894704 0.20522925 -0.07967525 -0.23372713 0.42480966
0.12916721 -0.2589456 -0.23537667 -0.0061849966 0.2826172 -0.124336205 -0.281718 -0.16776785
-0.3783986 0.16869934 0.38220662 -0.488492 0.11110776 0.2532788 0.0856471 -0.18307967
0.2622801 0.26406562 0.18827327 -0.08655127 -0.12870096 0.05719005 -0.08462741 -0.14530088
0.3127773 0.42286143 -0.056834847 -0.119508974 0.008382374 -0.028767833 0.12129145 0.14120272
-0.27198455 -0.06062798 0.60714364 0.36275727 -0.3197517 -0.28314537 -0.6085345 -0.45174035
-0.27456743 0.23432301 0.19461231 0.29948357 -0.5335974 -0.11306518 -0.15701726 0.64530784
0.06951679 -0.13229693 0.20404606 -0.19325234 -0.34512666 0.59226495 -0.25523925 0.13755253
-0.61638004 0.49182212 0.20540066 0.33653224 -0.051534805 -0.67462784 -0.3142742 0.74979293
0.27931875 0.5009807 0.30185264 0.20872857 -0.0055377097 -0.3808944 -0.42902747 -0.4683157
0.46270186 -0.6866302 0.20689112 -0.7156011 -0.06843041 -0.3331553 -0.31453028 0.18198684
-0.14669007 0.31058192 -0.15849625 -0.3648761 -0.21550505 -0.37159774 -0.28127283 -0.61665344

bias f4 [256]
00000000: 3cff 8e3e 129a 503d 03b1 373e fd07 acbe
00000010: 4c6d 9f3d 3651 9fbe ce74 9f3e 7fe2 a1be
00000020: a0ba 5abd ceff cebe d810 53bc f723 ee3e
00000030: 0c6e 613e 9c36 64be c120 59bd 6c28 9f3d
00000040: a318 e7be ce55 ca3e a077 a0bb 8239 c73d
00000050: 6584 3fbe f48c 84bd 7855 af3d 9c99 303e
00000060: 2e4f 1f3e 8fa7 76be 5752 f83e 9cac 2dbe
00000070: b642 84be 00a5 41be 4a92 f73e 1241 bcb9
00000080: 2589 00be c7f8 72be 60d0 0abe 6135 ecbe
00000090: e854 bbbe 7ca0 883e 6a04 dc3e ac9d e93e
000000a0: 6968 d4be 1389 7e3e d416 8dbe 5ed5 913e
000000b0: f5c7 b83e 1fa7 c73e f4b9 b23e 4a86 9c3e
000000c0: 4992 1f3c a658 5f3e f6d1 16be 3f3e bb3e
000000d0: 5a79 9fbd 564e ad3d 3286 dabe 047d 653d
000000e0: a180 adbd d2b0 75bd 7fa6 57be 7c0d e0be
000000f0: 244f 113e e109 af3e 24b5 e13e 2aa7 823e
00000100: 5ee9 16be e3ae 09bf 880c 403e 1812 2c3e
00000110: 4204 c1be 71e4 613e 1163 c93e 9deb a83d
00000120: 54dc 9abe 3a8b d83e 1ed2 5a3e b421 9f3e
00000130: e7ea d4be 6738 903e ac14 09be 525c fa3e
00000140: dee7 7fbe 9d01 ea3e 0f33 9e3d 6981 2b3e
00000150: 2360 283d 5928 8a3e ca2f 81be bd30 edbe
00000160: 34b5 4dbd da3e c43e bfb5 8bbd 2b2f 173e
00000170: 5fd6 8abe 71f9 af3e 15e1 933e e3de 273e
00000180: 758b 85be 7c3b c1be 7992 7e39 c2a8 96be
00000190: b103 ce3e abae f1be 5962 573e 4932 003f
000001a0: 8e15 623e ace5 373e b93d f2be 30ca ef3e
000001b0: 43ac 723d a911 ebbe d47e fb3e 14d0 2dbd
000001c0: 6d52 9c3d ecda e93e 31be abbe 653e adbe
000001d0: 7c7e 543e b3fc b4bd 9c98 ee3d 7343 d2be
000001e0: b324 153e b574 4ebe a280 9cbe 4ad0 dabe
000001f0: 877c 883e f6e0 c43d 634d d0be b325 cf3e
00000200: 7baa 8b3e 9db9 77bd 26d2 c9bd c16c 06bd
00000210: 4551 e93e f438 af3e 2ac6 b2be 0596 e03e
00000220: f1bd 173d 4afc 5c3e 0637 c13e 380e d43e
00000230: 2dd9 9fbe b78b c93e 1fc6 9cbe 93cf 0e3d
00000240: 3e9a b2be a9cf 0dbe 7caf 653d 0416 fbbd
00000250: 0f1d 86bd fd61 743d dd75 fe3e 8a62 923e
00000260: 75d5 873e f403 443e 56e8 c73e ba87 a939
00000270: 98a8 983c 838f 2c3e 5ae5 ddbe a0e6 cbbe
00000280: ac68 6b3d cbca 27be 40ba a53d 37af 42be
00000290: a0ab b63d 3f10 bd3e f3e0 e5bd 6cf2 c73e
000002a0: 2843 cb3e a44a bebe 9542 b9be 493b ccbe
000002b0: 2992 a2be 15a8 12be 56f2 28bd 4289 2ebe
000002c0: a810 9ebd 65e2 f63c ab5b 28be 59b9 f33e
000002d0: 7d5b 43be 6f26 b7be b3f6 863e cfd7 62bd
000002e0: 9001 c53e a267 9f3e 09f7 e63e 66a5 d2be
000002f0: c15e a03e 999b d23e f54d 5cbe 65da e53e
00000300: 01f1 a73e 56ca 943d 7067 6c3e 0bf9 43bd
00000310: 146f d6be ff1c 8b3d 8404 e33d fba8 d9be
00000320: 4bc8 813e 7540 dbbe 40b5 dd3e aca0 f83e
00000330: f813 f63d 4e3d 96be dbc3 703e 4ef1 a63d
00000340: 9679 313e 5d1a 053e c1f7 d93e a7d1 51be
00000350: 14f0 2abe 4788 443e 7423 5c3d 1a69 cf3e
00000360: 7ed9 99be 6fe6 b13c 4666 b13d 6aa9 02be
00000370: bd00 aa3e 374d 11bc ce58 e7be d261 d4bd
00000380: 288b 64be 12c7 4b3d 538d 653d 3c2b f9be
00000390: fe72 05be 2bdf 1a3d 032b 0bbe 67e4 e63e
000003a0: 9cf5 1ebd f15c 9e3e 5103 d83d 1072 d8be
000003b0: 00af b43d 8395 cd3e 3564 01be 5628 86be
000003c0: b604 f83e 7e3f c63e d4d0 c3bd 3fe8 953e
000003d0: 2c58 62bd b16c fdbe 78b9 083e 786d 173e
000003e0: c49c f43c 7624 573e dd4c dcbe 0473 b03e
000003f0: fda5 d63e e84d 7f3e 1b2d 113d 9768 c33e
0.27929103 0.050928183 0.17938618 -0.33599845 0.077845186 -0.31116647 0.31143802 -0.31618115
-0.053400636 -0.40429538 -0.012882434 0.46511814 0.22014636 -0.22286457 -0.053009752 0.07771382
-0.45135984 0.3951859 -0.004897073 0.097277656 -0.18702848 -0.06472197 0.08561224 0.17246097
0.15557548 -0.24087356 0.4850032 -0.16960377 -0.25832146 -0.18910599 0.48353797 -0.00035906635
-0.12552316 -0.23727714 -0.13556051 -0.46134475 -0.36588216 0.2668494 0.42972118 0.45628107
-0.4148591 0.24856977 -0.2755648 0.284831 0.36090055 0.3899469 0.34907496 0.30571204
0.009739467 0.2181116 -0.14728531 0.36570928 -0.07786818 0.08462207 -0.42680508 0.056027427
-0.084718 -0.059983082 -0.21059607 -0.43760288 0.14190346 0.34187225 0.44083512 0.2551816
-0.1473746 -0.5378248 0.1875478 0.16803777 -0.3769856 0.220598 0.39333394 0.08248065
-0.30246222 0.4229372 0.21369216 0.310804 -0.41585466 0.28168032 -0.13386792 0.4889856
-0.24990794 0.45704356 0.077245824 0.16748585 0.041107308 0.26983908 -0.25231773 -0.46326247
-0.050221637 0.38329202 -0.06821775 0.14764087 -0.27116677 0.34369996 0.2888266 0.16393618
-0.2608296 -0.37740695 0.00024277893 -0.29425627 0.4023719 -0.47203574 0.2103361 0.5007673
0.22078535 0.17958707 -0.47312716 0.46833944 0.059246313 -0.4591191 0.491202 -0.042434767
0.07632909 0.45674837 -0.33543542 -0.33836666 0.20751375 -0.08837261 0.11650202 -0.41067085
0.14564781 -0.20161708 -0.3056689 -0.42737037 0.26657507 0.096132204 -0.4068404 0.4045845
0.27278504 -0.06047975 -0.09854536 -0.03281856 0.45569816 0.3422314 -0.34916812 0.43864456
0.037046377 0.21580616 0.37737292 0.41417098 -0.3122038 0.39364406 -0.30619904 0.034865927
-0.34883302 -0.13848747 0.056075558 -0.122600585 -0.06548511 0.05966376 0.49699298 0.28590804
0.26530042 0.19142133 0.39044446 0.00032335316 0.01863508 0.1685162 -0.43339044 -0.3982439
0.05747287 -0.16385953 0.08092165 -0.19012152 0.089194536 0.36926457 -0.11224546 0.3905214
0.39699674 -0.3716632 -0.3618361 -0.3988898 -0.31752136 -0.1432193 -0.041246735 -0.17044547
-0.07718021 0.03013725 -0.16441219 0.47602347 -0.19077869 -0.3577151 0.26360092 -0.055381592
0.38477755 0.31133753 0.45110348 -0.41141814 0.31322291 0.41134337 -0.21514113 0.44893184
0.3280106 0.07265155 0.23086333 -0.047844928 -0.4188162 0.0679264 0.11084846 -0.42511734
0.25348124 -0.42822614 0.43302345 0.48560083 0.120155275 -0.29343647 0.23512213 0.08151494
0.17331538 0.12998338 0.42571834 -0.20490132 -0.16693145 0.1919261 0.05374475 0.40509874
-0.30048746 0.021716325 0.08662085 -0.12759939 0.33203688 -0.008868507 -0.4518494 -0.1037022
-0.22318709 0.049750395 0.05604298 -0.48665798 -0.13032147 0.037810486 -0.13590626 0.45096132
-0.03880845 0.30930284 0.105475076 -0.42274523 0.08822441 0.4015313 -0.12635882 -0.2620265
0.48441094 0.38720316 -0.09561315 0.29278752 -0.05525987 -0.49496987 0.13352 0.14787853
0.029859908 0.21010002 -0.43027392 0.3446275 0.41923514 0.24932063 0.035443407 0.38165733

weight f4 [1, 256]
00000000: 3c14 39bd e778 453e ecd9 c8bb 02c0 32be
00000010: f2dc 35bd 7641 3b3d 8254 62be 0032 dbbe
00000020: 2e87 ec3c fc1c 553d 85c5 7f3d 1072 033d
00000030: 27b5 00bc 22f3 4bbe 29d2 1e3e 3a40 0c3f
00000040: f5a9 31bf d2ec 60bd 7d4c f1be 1de6 063d
00000050: 55eb 46bd 3fe6 c43e a976 abbc 6568 023c
00000060: dcb0 30bd 1c23 143d 92a9 cd3c 0f32 40bf
00000070: 0e46 fe3a 3ec1 5e3a 4757 1d3c 692c 5a3d
00000080: 81e7 113d 330f a3bd 71f3 5f3d 8519 1abf
00000090: 1686 ecbe 5120 0cbb 0fd9 6fbd adaf 243b
000000a0: f68b 2cbf 8aed 3c3b 477c fe3b 4055 3aba
000000b0: c49e 77bd d86d 80bd b902 d33c 2993 313d
000000c0: 9f86 4dbd e19b 9a3c c510 a9be d001 aabe
000000d0: 6ec1 8f3d e216 953e 8fd4 22bd cf9c ce3e
000000e0: 402e 503e 1bb0 88be a084 51bd a945 bdbc
000000f0: b9ce c53e 6535 43bd 1c6d ed39 4032 c1bd
00000100: 5b04 2d3e fe6e 31bf 6349 e8bc b68e 783d
00000110: 48d0 9abe 4961 a7bd f1f7 f5bc 9f17 123e
00000120: 6477 803d 0e18 3cbd 3137 7ebd 44c8 06bd
00000130: 2e10 babe bf16 293d 6a45 d0ba 153c a3bc
00000140: 5dc4 01bf f22f b5be abd2 aabd 0704 8e3e
00000150: d4dd b03e abbf 8dbe e09a 85bd cb8c 19bd
00000160: 5fa2 8a3e 99be 493d 91dc 143b 5ca4 513d
00000170: 245a fbbe 85b3 2ebe 9847 8f3c 93f8 a73c
00000180: fba0 a43d dcc0 913b 52a9 413d d951 253d
00000190: 45e7 253d 4852 76bd 4cf3 fd3c 77c1 63bd
000001a0: 9688 8fbc 9997 8cbc 0f2d 4bbd 9fe6 433c
000001b0: c2fe 393e e277 51bd 6ff3 cfbc 7b44 c23d
000001c0: 94e4 cf3e dd2d c9bc 729a 583d 25a4 403c
000001d0: 6952 40be 3680 8c3c c9aa 28bd 1cb3 47bd
000001e0: ec4f cfbe 4833 92bd f19c c7bd 3fd1 053c
000001f0: 5e4a 32bd 21b7 d2bc f2d4 9bbb 3e1a cfbc
00000200: ec88 b9be 7d1c 793d 703d 393e 1dd7 763d
00000210: a94a 18bb 97cb 05bd d3db 20bd b7fc 0abc
00000220: 17ce 0fbd f9f9 e53a 711c 42bc 6a85 b43c
00000230: 055a c3be 8be9 c0bd a01d f5ba bb26 33bd
00000240: 9b75 fb3c 5429 19be 1ac6 8f3e ab95 ebbc
00000250: d9de cabc 8ec2 eb3d 56de 323d c153 fabd
00000260: 3f97 803c 75cf 613d 3289 7cbd 3222 b23b
00000270: 269e 433d 0847 983e 1e7b 29bd dadf bb3c
00000280: 5de5 1bbd cd95 9fba 672d 913e e1b6 9dbd
00000290: b537 93bd c284 72bd b7d1 133e 270d b93c
000002a0: b6be 65bd 715c aabc b71d 4c3c beb1 4bbd
000002b0: 2878 e03b 2c6b b03d 843b 713c b90d 0bbd
000002c0: 1a24 a63e c45b b13e 66d9 ee3d 6e06 34bd
000002d0: 579f b9bd 33cd fb3c 1cd1 71bd 2191 1d3d
000002e0: 47ed ffbc d30a 06bd 358b 223d df1f 6c3c
000002f0: 2235 1c3d 514c 533d c1d3 013c aea7 2f3b
00000300: eed1 c7bb e447 af3e 657c 8ebd 5a85 943d
00000310: 566a c7bb 741f 9b3d 9c35 0d3e 2971 acbe
00000320: f33e a4bc e4c4 193d 7c9d 46bd 8b36 2ebd
00000330: fc83 4bbc 3298 12bb 9e93 863c 6dfc 2c3d
00000340: 7e75 013e 3dc3 b8bd 3a74 aabd ed92 01bd
00000350: 6e92 bebd 6f84 9bbc c1d6 24bd 606a 7dbd
00000360: c1a7 37be de59 ec3d 4d71 c73c b18f f93d
00000370: 58b5 503d 285a 0cba b9ea 753c 654c 8ebd
00000380: 41cb c83c 10a5 66bd 79bb a03e 014e 793c
00000390: e28e 393d bd38 a83e 8233 debc 208c 4b3d
000003a0: f454 ad3e 3e27 efbd 5f16 5dbb ae09 273d
000003b0: 3e85 5b39 8b95 0d3c 3283 323e 5670 23be
000003c0: 8c11 cb3c 8769 283c 5d91 c83d 65ce 673d
000003d0: 32ec a13c b776 debb 6c18 3bbe f690 683c
000003e0: 8a9a 0c3f 5166 9abd 2bd0 593d 469b 893c
000003f0: 717b 5cbd d169 0cbc d8b5 bfbb c377 1cbf
-0.045185313 0.19284402 -0.006129494 -0.17456058 -0.044400163 0.045716725 -0.2210255 -0.42811584
0.028873052 0.052029595 0.06244423 0.0320912 -0.00785569 -0.19916967 0.15509857 0.547855
-0.6939996 -0.05491335 -0.47128668 0.032934297 -0.048564274 0.38456914 -0.020930605 0.00795946
-0.043137416 0.036166295 0.025105271 -0.75076383 0.001939954 0.0008497423 0.009603328 0.05326501
0.03562117 -0.079618834 0.054675523 -0.6019519 -0.4619605 -0.0021381567 -0.058556613 0.0025129125
-0.67401063 0.0028828108 0.00776628 -0.000710804 -0.060454145 -0.06270951 0.025758134 0.043353233
-0.050177213 0.018873157 -0.33020607 -0.33204508 0.07019316 0.2911902 -0.039753493 0.4035401
0.20330143 -0.26696858 -0.05115187 -0.023104506 0.3863428 -0.047658343 0.00045285455 -0.094334126
0.16896193 -0.69309986 -0.028355306 0.060682975 -0.3023703 -0.081728525 -0.030025454 0.14266823
0.06272772 -0.045921378 -0.062064353 -0.032905832 -0.3634047 0.041281458 -0.0015889828 -0.01992611
-0.5069025 -0.35388142 -0.08340963 0.27737448 0.3454424 -0.27685294 -0.06523681 -0.037487786
0.27077004 0.049254034 0.0022714476 0.051182136 -0.4909221 -0.17060669 0.017490193 0.020504272
0.08038517 0.0044480395 0.047280617 0.04036126 0.04050376 -0.060137063 0.030999802 -0.055604424
-0.017521184 -0.017162131 -0.049603518 0.01195684 0.18163589 -0.05113972 -0.025384633 0.09485718
0.4060408 -0.024558002 0.052881666 0.011757885 -0.18781437 0.01715098 -0.0411785 -0.048754796
-0.40490663 -0.07138687 -0.09746731 0.008167564 -0.043527953 -0.025722088 -0.0047556097 -0.025281068
-0.36237276 0.060818184 0.18089843 0.06026374 -0.002323786 -0.03266486 -0.03927214 -0.0084831035
-0.035108652 0.0017545811 -0.011847601 0.022036273 -0.38154617 -0.09419545 -0.0018700846 -0.043738108
0.030695727 -0.14957172 0.28080827 -0.02875789 -0.024764465 0.11511718 0.043669067 -0.12223006
0.01569712 0.055129487 -0.061654277 0.0054362053 0.047758244 0.29741693 -0.04137718 0.02293389
-0.038060535 -0.0012175381 0.28354952 -0.07700897 -0.0718836 -0.05920864 0.14435469 0.02258928
-0.05609008 -0.020796033 0.012458256 -0.049730055 0.0068502612 0.086141914 0.014723662 -0.033948634
0.32449418 0.34640324 0.11662559 -0.043951444 -0.09063595 0.030737495 -0.059037313 0.038468484
-0.031241072 -0.032725167 0.03968354 0.014411896 0.03813661 0.051586453 0.007924021 0.0026802826
-0.0060980236 0.34234536 -0.0695732 0.07251997 -0.0060856743 0.075743586 0.13789982 -0.33680084
-0.020049548 0.037541285 -0.048490033 -0.042532485 -0.012421604 -0.0022368548 0.016427811 0.04223292
0.12642476 -0.09021614 -0.0832295 -0.03163426 -0.09305273 -0.018984048 -0.040243868 -0.061869025
-0.17935087 0.11540578 0.024346018 0.1218561 0.050954193 -0.00053540105 0.0150095755 -0.06948165
0.024510982 -0.05630976 0.3139303 0.0152163515 0.04530228 0.32855788 -0.02712417 0.04969418
0.33853877 -0.11677407 -0.0033735258 0.040780716 0.00020935104 0.008641611 0.1743286 -0.15960822
0.02478864 0.010279066 0.09793351 0.056593318 0.019765947 -0.0067890543 -0.18271035 0.014194718
0.5492331 -0.075390466 0.05317704 0.016797673 -0.05382866 -0.0085701505 -0.005850535 -0.6112024
